HW3/pushing_multi_step_residual_dynamics_model.pt (torch, 47023 bytes, 6 tensors)

model.0.weight f4 [100, 6]
00000000: b354 c6be ab62 18be 27c6 9f3e 2ee9 c13e
00000010: 51cb 563e c4e1 8b3d e112 333e 6278 c1be
00000020: 40d2 723d e526 8bbe 5897 adbe 5eec b93d
00000030: 8ec1 c8be 681b 7f3e 6692 4cbd 9a26 cabd
00000040: e22b a6bb d556 a8be d52c aa3e 25c3 463d
00000050: bbc8 09bf 7f63 37be 3e6f 0bbe b760 babc
00000060: 399c fa3c b600 a6bc bcb3 23be bd22 93be
00000070: 39fa 27bc 69b2 34be 16e2 ca3c 0ad9 19be
00000080: c14b 903e dc63 bbbe 8def 873e 2ac2 89be
00000090: 9477 10be 2140 343e 0f1d d63d 5c8f a53e
000000a0: 773e 7b3e ccde 62bd 1b91 c2be 26ec dbbd
000000b0: b7b7 a43d 7816 d83c 549a dcbd 65fa fabd
000000c0: bec5 8a3e 3027 08be 6424 913e f989 96be
000000d0: f0a3 863e a0c9 843e d3e0 a3be 44c0 303e
000000e0: 7395 0f3c e570 4c3e e15a a93e 4efc a33e
000000f0: d3cb 9ebe 54c8 443f 2ca8 4bb9 c916 7fbe
00000100: d854 bb3e 155a 24bf 99ba c03e 0e10 f3bd
00000110: 01a2 6abe 3947 a5be b6ea b23e 22f8 fb3d
00000120: 073b acbe 55b8 d43e 5d05 6abe fae9 bc3e
00000130: e784 b3bd 2027 86bd 517d 6c3e 361f a63e
00000140: 7cf4 9d3e ea77 543c fffb a73e ccc6 fdba
00000150: 33df b23e ece2 10be 1587 183e e415 5d3d
00000160: fdea 363e de18 173d f776 203e 0579 d4bd
00000170: 4087 4d3e a5a0 723e 4e2e b2be 7597 9ebe
00000180: 3cff ae39 b96f 00be d4fa 803e 6b74 863e
00000190: dfa5 993e 1d4b a63d debe 22be c76b f93d
000001a0: dfcd 3dbd 2d91 1a3e f2a6 6c3e ba6d c93e
000001b0: 3466 b63e ef36 163d fa12 41be 6516 8c3e
000001c0: 57e7 a93e 458b 8c3e de27 67be 3643 c43e
000001d0: 8cbd 673e 0bb8 13bd 4579 1e3e 1c2f 30be
000001e0: cd4f 5f3e 1a48 6ebe 6fa9 ac3d c35b 9e3e
000001f0: 21d4 923e 08ac 05be dc74 803e 332e 863d
00000200: 5b43 83be e9db b33d 0f3a f03e 9ba0 38be
00000210: 86db aebe 7aaf 943e 92ac c53d 22fd b63e
00000220: 3a81 d3bd 369d 57be 00ca b93e 4080 df3d
00000230: ebf5 dcbd 788c 2ebe 72ec 183e 1cd9 983e
00000240: 7daa 233e 1f48 ecbd 2164 3fbc c3b1 38be
00000250: caa6 0fbe 8902 5b3b 488d acbd a102 9d3d
00000260: 4774 5f3e 879a b13e 33b4 a1be 5c95 debd
00000270: 2369 a73d e449 873e 33db a63e 57d5 c8be
00000280: 83e8 7f3e 4e8d 8cbe a01d a23e ba9a 5abd
00000290: 16cf 9b3e 9945 1fbe 79d6 30bd 2d63 d6be
000002a0: 9330 9cbe 2b0d 53be 85c5 b73e af05 71be
000002b0: 99bd 3abe 5ced 05be 63a5 ef3d 781c f5bd
000002c0: b300 403a 12ec b53d 4a16 5e3e 4767 15bc
000002d0: 00a0 77bd e172 5e3d 863b f2bd 9cf0 583d
000002e0: d7c1 52be c8c9 c93e 23ea 953e 972a 73be
000002f0: f886 bd3e 4906 b33d 5911 663e 9778 72bd
00000300: 41e8 d23e d228 f83c 7694 143c a63e 23be
00000310: 6486 c1be 0b89 2d3e 752b 38be db0c 91bd
00000320: 1bb0 38bd e8b9 c33e d8ab 813d e459 e6be
00000330: bb10 54be 1397 08bb 31fe c63d 71c5 203e
00000340: d1ee c4be 550b b1be 2535 a63e b721 2fbe
00000350: d060 c33e ae3c 94be 3af0 84b8 f89d 423e
00000360: 26ca 28bd 5311 dd3e a1a9 b93e f2b8 e1bd
00000370: 1a03 61be 49fa a23e 6fae 3ebd 6152 a4be
00000380: dbe1 8cbe ed9b 8b3e a4e2 12bc 4989 cabe
00000390: 6763 793e 4ac0 873e 395e 8dbe 92b3 9b3e
000003a0: 7dae 3dbe 6883 5cbe 82d4 463d 9713 9abe
000003b0: 43a8 bb3c 4e72 523e 5d3b d63c 90e2 d0be
000003c0: 6835 5dbe fd43 23be 9c2c e03d 5563 81be
000003d0: 4d94 c9be fdcc 763e 535f d9bb 6e0e 9d3e
000003e0: 4cc4 a33e 6bac 19be 6c74 df3d 4f60 dd3d
000003f0: c675 26be cc4f cfbd 6e43 26bd 4d01 10be
-0.38736495 -0.14881389 0.31205866 0.37873214 0.20975997 0.06830171 0.1748767 -0.37787157
0.05928254 -0.27178112 -0.3390453 0.090782866 -0.3921017 0.24912798 -0.049944304 -0.09870644
-0.005071149 -0.32878748 0.3323733 0.048525948 -0.53821915 -0.17909048 -0.13616654 -0.022751195
0.03059207 -0.02026401 -0.15986532 -0.2873744 -0.010252529 -0.17646183 0.02476601 -0.150242
0.28182796 -0.36599624 0.2654995 -0.26905948 -0.14108115 0.17602588 0.10454761 0.32335937
0.24535547 -0.055388257 -0.38001332 -0.10738401 0.08042853 0.026377901 -0.10771623 -0.1225479
0.2710399 -0.13296199 0.28348076 -0.2940214 0.2629695 0.25935078 -0.32007465 0.17260844
0.008763659 0.19964941 0.33077148 0.3202843 -0.3101488 0.76868176 -0.00019422238 -0.24911036
0.36588168 -0.64199954 0.37642363 -0.118682966 -0.22913362 -0.322809 0.34944695 0.12303187
-0.33638784 0.41546884 -0.22853608 0.3689726 -0.087655835 -0.06550431 0.2309468 0.32445687
0.3085059 0.012968043 0.32809445 -0.0019361614 0.34935912 -0.14149064 0.1489528 0.053975955
0.17863078 0.03688895 0.15670381 -0.10374645 0.20071125 0.23694094 -0.34800953 -0.30974928
0.0003337803 -0.12542619 0.25191367 0.26260695 0.30009362 0.081197955 -0.15893123 0.1217876
-0.046338912 0.15094443 0.2311056 0.39341527 0.3562485 0.036673483 -0.18854895 0.27360836
0.3318431 0.27450004 -0.22573802 0.38332528 0.226309 -0.03606419 0.15475948 -0.17205471
0.21807785 -0.23269692 0.084307544 0.30929384 0.28677467 -0.13053906 0.25089157 0.065517806
-0.25637326 0.08782179 0.46919295 -0.18030016 -0.34151858 0.29040128 0.09652056 0.3574
-0.103273824 -0.21056065 0.36286926 0.109131336 -0.10789093 -0.17045772 0.14933947 0.2985314
0.15983005 -0.115371935 -0.011681587 -0.1803656 -0.14028469 0.003341826 -0.08425385 0.07666517
0.218217 0.34688208 -0.31582794 -0.10868332 0.0817435 0.26423562 0.3258911 -0.39225265
0.2499104 -0.27451557 0.31663227 -0.053370215 0.30431432 -0.15553893 -0.043173287 -0.4187254
-0.3050581 -0.20610492 0.35892883 -0.23537324 -0.18236388 -0.13078827 0.11701467 -0.119683206
0.0007324323 0.088829175 0.2168819 -0.0091188615 -0.060455322 0.054308776 -0.118277594 0.052963838
-0.20581757 0.3941176 0.29280195 -0.23746715 0.37017035 0.08741433 0.22467555 -0.059197035
0.4119282 0.030292902 0.009068599 -0.15941867 -0.37797844 0.16946809 -0.17985328 -0.0708253
-0.045089822 0.38227773 0.06331605 -0.44990456 -0.20709507 -0.0020842 0.09716452 0.15700318
-0.38463452 -0.34578958 0.3246242 -0.17102705 0.381598 -0.28952545 -6.338996e-05 0.19005573
-0.04120841 0.4317728 0.3626223 -0.11021604 -0.2197384 0.31831577 -0.04655307 -0.320941
-0.27516064 0.272674 -0.008965168 -0.39557865 0.24354325 0.26513892 -0.2761095 0.3041044
-0.18523593 -0.21534503 0.048542507 -0.3009307 0.022907382 0.20551416 0.026151353 -0.40797853
-0.21602404 -0.15943904 0.109460086 -0.25271097 -0.39370957 0.24101634 -0.006633678 0.3067507
0.319857 -0.15007178 0.109108776 0.10809385 -0.16255865 -0.10122642 -0.04059165 -0.14062996

model.0.bias f4 [100]
00000000: 82e3 cc3e ae3d 503e d7b7 7fbd 8494 95be
00000010: 7a6c d0be ffeb bcbe 345c 7bbe ce1b a63e
00000020: 006f 6c3e 05c6 aebe 0380 9fbe 78f6 1fbe
00000030: 046c 523e 07f9 683e 6450 4a3e c4e0 353e
00000040: 9767 eb3d 42d8 923e 06c4 0e3e 1d87 943d
00000050: 9b65 783e 0833 97be d810 663d 1585 babe
00000060: 0e66 5b3e 9165 b93e 1f38 73be dbb0 62be
00000070: 3d45 c03e 276b 773d 2cd3 40be 9332 92be
00000080: 5d23 47be a9ce 8bbd e21d 443d 76e9 e7be
00000090: 4912 81be d458 a83e 8e07 983d 7cca 053e
000000a0: f610 b7bd f0c6 243e 5f93 af3d d55f b2be
000000b0: b17e 9d3c 3ba4 953e 5edb 2e3e 96aa 293d
000000c0: bc43 2f3d c592 38bd 0200 153c 748c 953e
000000d0: 2609 0f3e 9a88 8cbe 9eb4 a9be ec8a 193e
000000e0: 965f a3be 1783 f93d 9c3e 5bbe 4413 f4bd
000000f0: cd37 05bd 8279 79be 35aa 013e 586b 1f3d
00000100: ae4c 5a3e b374 5a3e 1bbe dabd d1a8 0d3e
00000110: 7867 41bd e572 c2be e34e b83d 6e78 a43e
00000120: e382 363e 6580 623e 47a8 c63e 816e 723e
00000130: 97be 30be 4b14 60be 093f 9e3d 409d c03d
00000140: 1c5e daba c66a a83e c9fd 56be 4472 b73e
00000150: 00e5 d0bd f00a 4abe b8f8 5abe 96cc a5be
00000160: 00c4 a73c 428f 573e 873f 643d 350e 7c3d
00000170: 2ec6 10be a752 fcbd 2683 233e d302 183e
00000180: 0c9a 8e3d ecba d33d dab6 c5be 4ff2 9abe
0.40017325 0.20336029 -0.062431183 -0.2921487 -0.4070776 -0.368988 -0.24546891 0.32443088
0.23089218 -0.34135452 -0.31152353 -0.15621364 0.20549017 0.22751246 0.19757229 0.17761523
0.114943676 0.28680617 0.13941965 0.07252333 0.2425751 -0.2953112 0.056168407 -0.3642966
0.2142565 0.36210302 -0.23751877 -0.22137778 0.37552825 0.060404923 -0.18830556 -0.2855421
-0.19447084 -0.06826527 0.04788006 -0.45295304 -0.25209263 0.3288027 0.07423316 0.13065523
-0.08938782 0.16091514 0.08573031 -0.3483874 0.01922545 0.2922686 0.1707587 0.04142245
0.042789206 -0.045061845 0.00909424 0.2920872 0.13968334 -0.2744797 -0.33145612 0.149944
-0.31908864 0.121832065 -0.21410602 -0.11917737 -0.03252392 -0.24362758 0.12662585 0.03892073
0.21318313 0.2133358 -0.10680791 0.1383393 -0.047217816 -0.37978283 0.089994214 0.3212313
0.17823367 0.22119291 0.3880026 0.23674966 -0.17260204 -0.21882741 0.07726867 0.09404993
-0.0016660127 0.32893962 -0.20995249 0.35829365 -0.10199928 -0.19730735 -0.21383941 -0.3238265
0.020479202 0.21050742 0.055724647 0.061536986 -0.141381 -0.12320452 0.15967998 0.14844827
0.06962976 0.10338387 -0.38616067 -0.30262992

model.2.weight f4 [100, 100]
00000000: 5802 28bd 591e 023d db00 cc3d 9a07 4f3e
00000010: d52b 86bd e7d7 08be e418 ca3c 0d8e ac3d
00000020: 2c87 083d f30b d43d dc52 a3bd 912d 87bd
00000030: 6872 4ebd c994 1d3d 3e9f c6bd 2b57 073d
00000040: 7ce0 abbd 99b7 f9bc dea2 93bd 56fb 30bd
00000050: 5fa6 80bd 6bb0 83be 6eff 0cbd a331 253d
00000060: 5414 12bd 5f33 c03d 499d 703c 0109 0a3e
00000070: ff63 b03d e521 a1bd e1c3 7b3d 707e b3bd
00000080: f6d8 7b3d 0874 64be 12e6 23bc 0feb a1bd
00000090: 8b8e 7cbd a214 f1bd 5ff5 103d 3160 7abd
000000a0: 5155 b33d dcc2 a93c 30e4 20bd d475 3dbc
000000b0: a95b 72bc fabc 583c 9bc7 e8bb 2da7 093b
000000c0: d206 103c 2df9 f63c 1b12 86bc de03 acbc
000000d0: 56f5 58bd 2c7a ecbc 5388 c6bc bd43 673d
000000e0: 4fa5 ff3c 54ce fb3c afbf 86bc 808c 783e
000000f0: 1cd2 b3bd 101b c33d 61ea 523d 597e b13d
00000100: 193f 223d 4c21 633d 42ba 563d 781e dabc
00000110: f1ea aebd b2da ac3d 0140 9b3c 26e6 17bd
00000120: 4b5c 023d 452c 573d 5382 cc3a 6ea4 4b3c
00000130: 7b0d cc3c 5a66 f3bd 7bf0 24bd d869 2c3c
00000140: 8e9a c03d 2679 edbc fc31 dfbc 941a 62bd
00000150: 858a 80bc e6a0 503b a468 e13d e1df c33e
00000160: 5c11 f63d 62d6 48bd 2778 f7bd 2bf7 cf3c
00000170: 50ee abbe e82f c23e d4cc 863d fefd 4f3d
00000180: f541 3d3d eacc acbe 50a9 043e e484 94bd
00000190: 99a0 f83a 3735 6abd b850 c9bd f500 a0bd
000001a0: 3343 c1bc 3348 87bc fad0 0bbd a668 003d
000001b0: f6e5 80bd 921f 883c 6752 24bd c987 85bc
000001c0: deed aabc 370c dc3c 8b3b 483d 0acb 1ebd
000001d0: 6317 e83a 8486 3cbb d14b 93bd 35dc 8fbd
000001e0: 8c7f 123c 5c11 a8bd 3910 543d 1767 473d
000001f0: edaa 59bd 65e5 983a d026 0abd 070d 803c
00000200: adb4 e83c e5b8 4dbd 0500 99bd 1fc6 ffbb
00000210: 1a2c 293d bddb 39bd 1735 8d3d 4731 d43c
00000220: 0040 cdb8 e67e 4abd 795f 833d 8314 273d
00000230: 9acc 24bd f0a1 32bd f7b2 6e3d c77e 943d
00000240: 70c5 b4bd 82de 113d 3ea6 93bd ca5f b2bd
00000250: 9f06 873d 9a84 cc3b eaa1 03bd b7d4 063d
00000260: 34b8 423d 13bb bc3c 77b9 a3bd b153 8dbd
00000270: 6eb2 5d3d 0146 cd3b 9a4b e3bc 1446 173d
00000280: bada b83d 781e 8bbd 7b76 a0bd 5aa6 1c3d
00000290: d4e8 eabc 2ae2 7fbd 9a05 91bb dd9a 65bd
000002a0: c09e a4bd 6ad2 143d 007e 21bc 10f9 acbc
000002b0: 0d2a b9bd 8b8f 8cbb 701d a9bd c29c 693c
000002c0: 37b0 853d 189c a1bd 4dac 17bc a042 ec3c
000002d0: 09d7 7d3c d911 cdbd e006 da3c effa c0bd
000002e0: 0083 5dbd eddc a8bc 4b34 8abd e532 aebd
000002f0: 7552 973d 557c 9abc fdea bbbc dc6e 993d
00000300: 0fa3 2cbd 2553 85bd 1843 a1bd 4751 98bd
00000310: ca23 5c3d dffb 1d3c 10a8 b33d 27a6 abbc
00000320: 55f5 8b3c 0fb4 5f3d 33c4 e7bb 3497 bb3d
00000330: da67 a0bc 5d1f cbbe d91b 5e3d 0b8e 6c3d
00000340: 8be7 8abc f6e8 12be ba08 ae3c e486 23bf
00000350: 649e c3bc 6010 aabd 0372 94bd 5ae5 0e3d
00000360: 11ee e3bc 566b 573d 377c 74bd 9e4e 43bd
00000370: b848 2cbd e03b 833c d23c 713c b86e 00be
00000380: d0d4 27bc d5ec ef3c a8e3 593c b1de efbc
00000390: 31a6 4fbc cf5f 79bd 3c1c 583d 6cd6 4ebd
000003a0: a30b 273d dd1c 20bb f7a9 2d3d 7f15 cf3c
000003b0: e6b0 b83d 2a23 71bd 7793 8fbd 58fe e63c
000003c0: e183 23bd 1971 c339 00aa 56bf 6d10 323e
000003d0: fb76 093d 5fe7 0a3d 9393 acbd 2f87 d63d
000003e0: c33a dfbd db00 0fbd fd58 a9bd ce90 0cbb
000003f0: 81ac 8a3d 893d 7bbd 8752 313d 1f39 413d
-0.04101786 0.031767223 0.09961101 0.20217744 -0.06551329 -0.1336361 0.024670072 0.084255315
0.033332035 0.10353842 -0.079747885 -0.06600488 -0.050402075 0.03847197 -0.09698342 0.033042114
-0.08392426 -0.030483054 -0.07208799 -0.043208443 -0.06281733 -0.25720534 -0.034423284 0.04033054
-0.035663918 0.09384798 0.014685937 0.13479997 0.08612823 -0.07867793 0.0614661 -0.087643504
0.061486207 -0.22309887 -0.0100035835 -0.07906162 -0.061659377 -0.117715135 0.035390254 -0.06112689
0.08756507 0.020722799 -0.039280117 -0.011563737 -0.014792361 0.013228649 -0.007103873 0.0021004186
0.008790689 0.030148113 -0.016366055 -0.020997938 -0.052968346 -0.02886685 -0.024234926 0.056461085
0.031206755 0.030738033 -0.016448824 0.24272346 -0.087803096 0.09526646 0.051493052 0.08666677
0.039610956 0.055451676 0.052423723 -0.026625857 -0.08540905 0.0844015 0.018951418 -0.03708472
0.0318263 0.052532453 0.0015602804 0.01242934 0.024908772 -0.118847564 -0.040268403 0.010523282
0.09404479 -0.028988432 -0.027245514 -0.055201128 -0.015691051 0.0031834184 0.11006287 0.38256744
0.1201503 -0.049032576 -0.12083464 0.025386414 -0.33580256 0.37927175 0.065820366 0.050779335
0.04620548 -0.33750087 0.12955213 -0.072519094 0.001896876 -0.057179656 -0.09829849 -0.078126825
-0.023591613 -0.01651392 -0.034134842 0.0313498 -0.062938616 0.016616616 -0.040117647 -0.016300099
-0.020865377 0.026861293 0.04888491 -0.038767852 0.0017707165 -0.00287667 -0.07192195 -0.07024423
0.008941542 -0.08206436 0.051773284 0.0486823 -0.053141523 0.0011665045 -0.03372842 0.015631212
0.028406465 -0.050225157 -0.07470707 -0.0078056003 0.041301824 -0.045375574 0.06894892 0.025902404
-9.787083e-05 -0.049437426 0.06414694 0.040791046 -0.040234186 -0.043611467 0.058276143 0.07250743
-0.08826721 0.03561259 -0.072094426 -0.087096766 0.0659306 0.0062413933 -0.032136835 0.032917704
0.04753895 0.023038423 -0.07994359 -0.069007285 0.054125242 0.0062644486 -0.02774601 0.036932066
0.09026094 -0.06792921 -0.07835098 0.038244583 -0.028675474 -0.062471546 -0.0044257166 -0.056055892
-0.08038092 0.03633348 -0.009856701 -0.021114856 -0.09041224 -0.0042895726 -0.08257568 0.014258565
0.06527751 -0.07891101 -0.009257388 0.028840363 0.015493163 -0.1001317 0.026614606 -0.09422862
-0.05408001 -0.020613158 -0.06748255 -0.08505801 0.07388774 -0.018858114 -0.0229392 0.07491848
-0.042147692 -0.06509999 -0.07874125 -0.074373774 0.05374507 0.00964257 0.0877229 -0.020953251
0.017084757 0.054615077 -0.0070729493 0.09159699 -0.01958077 -0.39672366 0.054225776 0.05775265
-0.016956111 -0.1434668 0.021244396 -0.638777 -0.023879237 -0.083039045 -0.072483085 0.034886695
-0.02782348 0.052592598 -0.059688773 -0.047682397 -0.042061538 0.016019762 0.014723973 -0.12542236
-0.01024361 0.029287735 0.013298906 -0.029280992 -0.0126739 -0.060882386 0.0527613 -0.050497457
0.040782582 -0.0024431266 0.04239842 0.025278805 0.09018116 -0.058871426 -0.070105486 0.028197452
-0.03992069 0.00037277563 -0.8385315 0.17389078 0.033560734 0.03391206 -0.08426585 0.10475003
-0.1089988 -0.034912925 -0.08268926 -0.0021448615 0.06771184 -0.06133798 0.043291595 0.047173616

model.2.bias f4 [100]
00000000: f8d8 093c 9091 4abb b767 bc3c 0afe d3bc
00000010: 50b6 bfbc bcd6 8b3c 2695 91bd b540 36bd
00000020: 62bd a23d cd0f 433d a4ef f83c a238 2cbd
00000030: d05d 593d 305f 53bc f477 113b 7261 01bc
00000040: 1542 a93d 5b8d ebbd edd5 c3ba 53db b7bd
00000050: f0c4 d5bc e2fc 01bc e380 6bbd 53d3 a9bc
00000060: c688 5f3d 669e b0bc 47f7 77bd b8f6 ba3d
00000070: ed45 273b b0dc cb3d 8655 3abd c6ab 813c
00000080: 060f 98bd 9083 b639 55f0 583d e29d fa3c
00000090: af8d c9bc c83b b03d aec2 2dbd 07b7 5b3d
000000a0: 111f 3dba 358f 983d 9e7c d43c 9089 0c3d
000000b0: 28ae 02bd 39df a33d d5a1 403d 20f8 76bd
000000c0: 82eb bf3d 53b6 25bb 2142 0cbd 14d2 8c3d
000000d0: 4640 78bd 6d34 d1bd 75b6 5abd 45e3 a1bd
000000e0: 9130 56bd c8c5 1fbb 9ac4 7f3d be55 ae3d
000000f0: 95c4 ba3c 7fe6 35bd bbd9 bfbd 0582 bebd
00000100: bac7 603c 4330 4b3d cda7 89bd 2226 a2bd
00000110: 8c04 b73d 37a8 0cbd d41f a23c f7ac 2d3d
00000120: c578 de3c 993b b2bd 5d7a f1bc 44d6 c73d
00000130: 325e d1ba 5b54 893d c063 903d c049 9e3d
00000140: 298d 3cbb 04eb 303d 63ce 74bd 1ada 5d3c
00000150: b434 293d becb 85bd ba75 5ebd 4a96 da3c
00000160: 766d 333d c5f5 603d 731e 9dbc fdc3 1d3d
00000170: 1139 de3c 11c9 433d 33ae c2bd 3ee2 163d
00000180: ecec 4f3d e0a3 51bd 8553 b53d 5590 45bd
0.008413546 -0.0030909516 0.022998674 -0.025877971 -0.023402363 0.017070167 -0.07108526 -0.044495303
0.07946278 0.04762249 0.030387707 -0.042046197 0.053067982 -0.012901112 0.0022196742 -0.007896768
0.08264557 -0.11501571 -0.0014941074 -0.0897738 -0.026094884 -0.007933827 -0.057495963 -0.02073065
0.054573797 -0.021559905 -0.060538556 0.09129089 0.0025523857 0.09954202 -0.045491718 0.015828978
-0.074247405 0.00034811767 0.052963573 0.030592863 -0.024603693 0.08605152 -0.04242199 0.053641345
-0.0007214407 0.074491896 0.025938328 0.034310877 -0.03190437 0.08001561 0.047029335 -0.060295224
0.093710914 -0.0025285676 -0.034242753 0.06876007 -0.06060817 -0.102150775 -0.05339666 -0.07904676
-0.05229241 -0.0024379361 0.062443353 0.08512448 0.022798816 -0.04440927 -0.09367701 -0.09302143
0.0137194935 0.049606573 -0.067214586 -0.079174295 0.08936414 -0.03434011 0.019790567 0.04240128
0.027157197 -0.087027736 -0.029477293 0.09757665 -0.0015973507 0.06705543 0.07050276 0.077289104
-0.0028770661 0.04319288 -0.05976714 0.013540769 0.041310027 -0.06533001 -0.05431149 0.026682992
0.043805562 0.054921884 -0.019179558 0.038516987 0.02712682 0.047799174 -0.09505882 0.036836855
0.050763056 -0.051181674 0.08853821 -0.04823335

model.4.weight f4 [3, 100]
00000000: 1047 ac3d ac25 803c 8a46 623d 530e c73c
00000010: 5e17 99bc e8ad 353c e959 b03c 95d1 383c
00000020: e9ef 6f3c ab73 39bd 1fdf f13c 183c 64bd
00000030: 1e4e 683d 6548 44bd a234 413d 48c5 09bd
00000040: 3dd0 b73b 7c8e b13c b511 45bc e312 7dbd
00000050: 9212 78bd 314a 003d 9df9 563d 7b00 b5bd
00000060: 7c88 08bd e944 98bd 5d08 72bd 1eb0 7dbd
00000070: 934e 20bd 335a a33b 5478 a0bd a6e2 50ba
00000080: b4ce 09bd 90c8 0ebc 4493 ac3c 9fe1 c1bd
00000090: 96a2 3bba bbd5 a03b 4fec 8cbd dc31 d1bc
000000a0: 00d0 283a f78a 76bd 00bb 71bc ef2b bd3d
000000b0: db14 84bc 4164 a13c f221 d1bb 627b 9c3d
000000c0: d5f7 a83c 7cb8 57bc a1f0 4b3d ba3e 183d
000000d0: 0951 503d 6b37 67bd 4c05 e63d aafe 583d
000000e0: d682 903d db0f 2e3b 8b36 b73b 309c 26bd
000000f0: aa22 1f3d 1bc6 3dbd 6115 033d 9d45 25bd
00000100: 874a f8bd 9ae8 abbc 73ac 98bd b2dd 0d3e
00000110: 67a6 81bc 0bd6 b53d 616e 2d3d a9e0 323c
00000120: 11e4 3a3d 7fae 033d 2eb2 64bc ae28 56bd
00000130: 1a67 a13b ae6b 71bd dd83 243d cfb9 37bd
00000140: 2271 183d 7308 ab3d f976 473d 423c c03d
00000150: add6 013e f590 00bd b2db 213d dbba 3e3d
00000160: 5f10 e8bc 57f6 8ebd f4ad 96bd b48a 053d
00000170: 2926 053d d8d6 49bd b650 73bd fd5c 4c3a
00000180: 54b4 043d cbc7 2fbd 2879 b5bc c9fa bb3d
00000190: 1719 a33d a1bf 9bbc 4686 c03c 9def 75bc
000001a0: 2cea 433d 251b b1bd 9278 cf3c cceb 6c3c
000001b0: d2ef d93c b569 083d 7a8d 99bc 24ef 0d3d
000001c0: e72c 1abd 5823 71bd e836 68bd a6c1 013d
000001d0: 3743 c53b 052b 22bc d0d5 9dbc ad8d 073d
000001e0: 26b3 2e3d 6e35 1c3d a0b2 cbbc 1ae6 813d
000001f0: e45a 30bd 9461 603d 3b23 c13d d7ea a53b
00000200: ec48 6a3d 8d88 a4bc 8b4d cfbc 1b84 c4bb
00000210: 9c3f e13c ba0e 3fbd 5675 22bd c055 85bd
00000220: a0c8 783d de16 343d 3490 063c d258 e43b
00000230: 4719 983c bfa6 a9bd e54c 623d 8bff 843d
00000240: c1ee 943d 59b8 45bd 70a3 0b3c 2e5f 6f3d
00000250: e994 213c 1405 68bc 4d25 8dbd b0a3 103d
00000260: 79f0 8b3d a1e4 67bd 8659 44bd 7a23 adbd
00000270: 8098 183c 4bde a43d 2d24 02bc af92 3dbd
00000280: 62de 00bd 1510 3cbd 9bcc efbc 436d 9d3d
00000290: 9099 64bd 5d1c f93b b55c 8c3d ca87 51bd
000002a0: e055 9d3c b855 333c d0a7 743d 0c78 93bd
000002b0: 7789 2abd ed4e af3c dbc9 95bb d290 fcbc
000002c0: eb04 ac3d aa4b 66bd 726e 8e3d 6c0d 0b3c
000002d0: 8498 1d3c e943 573d f6b8 f03c 1a59 c83b
000002e0: 333f 3c3d 776f 7cbd 260f 0c3d 6d15 973d
000002f0: c34b 993d 0088 f6bc 7776 a0bd f064 283d
00000300: 52ce 2abd ca44 6f3d 2967 94bc 3202 c5bc
00000310: 0d8c 663d a20e 373d 2f7f 073d d150 423d
00000320: 63a1 78bd 734e d1bc 861a 6bbd cda8 853c
00000330: 2616 7c3e 351d b4be a0ee cabd 931b 633e
00000340: 5f00 dc3d 737c 9c3d 5435 403d b8e6 ccbd
00000350: a479 353e 9109 903d 5f37 05bd 47f5 10bb
00000360: 08b4 853d d39b ccbe e4bd 983e e7a1 e53c
00000370: 03d2 e33d 571a b13c e759 363c f324 9abd
00000380: 7d75 88bd 9e4c 433d 8037 2a3c 5cc6 e0bd
00000390: ee6a 043e 72e0 c3bd 6a60 dd3d b332 1dbf
000003a0: c376 aabd 4cec d93e fe29 d13c 8d3e f93c
000003b0: 61e0 aa3a a514 ba3c 6f61 58bc 06bf 39be
000003c0: 4070 8fbe 2082 113e 26e5 d9bd 6d10 b8bd
000003d0: 0466 22be dabe 87be 76e0 12be ee82 413d
000003e0: b4c4 79be 6c78 4b3f 9ffb b93d ef8e 1b3f
000003f0: 0e67 09be 47f7 ebbd 83aa d1be 20bf bb3c
0.084119916 0.015642963 0.055243053 0.024298823 -0.0186879 0.011088826 0.021527248 0.011280437
0.014644601 -0.045276325 0.029525338 -0.055721372 0.056715123 -0.047920603 0.047169335 -0.033635408
0.0056095407 0.021674387 -0.0120281475 -0.06178559 -0.060564585 0.031320754 0.052484144 -0.08837982
-0.033333287 -0.074350186 -0.059090007 -0.061935537 -0.039137434 0.004985118 -0.07835451 -0.00079683436
-0.033644393 -0.00871481 0.021066315 -0.09466862 -0.0007157711 0.004908291 -0.0688101 -0.02553647
0.0006439686 -0.06019112 -0.014754057 0.09236895 -0.016123226 0.019701125 -0.0063822204 0.07640721
0.020625988 -0.013166543 0.04979003 0.037169196 0.05085853 -0.056449335 0.11231479 0.05297724
0.07056205 0.0026559744 0.005591219 -0.040676296 0.038851418 -0.046331506 0.03200281 -0.04034959
-0.1212359 -0.020984937 -0.07454767 0.13854101 -0.015826417 0.08878716 0.042341594 0.010917821
0.045627657 0.032148834 -0.013958497 -0.05228489 0.0049256207 -0.058940582 0.040164817 -0.044854935
0.037217267 0.08351221 0.048697446 0.09386493 0.12679549 -0.03138824 0.03951616 0.046564918
-0.028328119 -0.06980579 -0.07357398 0.03260298 0.032507095 -0.049277157 -0.059403144 0.0007795839
0.032398537 -0.042915147 -0.022152498 0.09178693 0.0796377 -0.019012274 0.023501527 -0.015010742
0.047830746 -0.086477555 0.025326047 0.014460515 0.026603613 0.033303935 -0.01874422 0.03465189
-0.03764048 -0.058871597 -0.056692988 0.03167882 0.0060199755 -0.009897952 -0.019266993 0.033094097
0.042651318 0.038136892 -0.024865448 0.063427165 -0.04305543 0.054780558 0.09430548 0.0050633955
0.05719845 -0.020084644 -0.02530553 -0.0059971935 0.027496152 -0.046644904 -0.03966268 -0.06510496
0.060738206 0.04396712 0.008213092 0.006968596 0.01856674 -0.082837574 0.055249114 0.064940535
0.07272101 -0.04827151 0.008522853 0.05844038 0.009862163 -0.014161367 -0.0689188 0.035312355
0.06832976 -0.056614522 -0.04793694 -0.08454032 0.009313703 0.080502115 -0.007943195 -0.046282467
-0.03146208 -0.045913775 -0.029272368 0.07686856 -0.05581051 0.007602258 0.0685362 -0.05115489
0.019205987 0.01094573 0.05973035 -0.072006315 -0.041635003 0.02139994 -0.004571182 -0.030830774
0.083993755 -0.056224503 0.069546595 0.008487087 0.009618882 0.052555 0.029385071 0.0061141374
0.04595871 -0.06162974 0.034194134 0.073771335 0.074851535 -0.030094147 -0.078350954 0.041111887
-0.04170067 0.05841521 -0.018115597 -0.024048898 0.056285907 0.04469169 0.033080276 0.047440354
-0.060700785 -0.025550103 -0.05739834 0.016315842 0.24617824 -0.35178533 -0.09908795 0.22178487
0.10742258 0.07640924 0.046925858 -0.100049436 0.17722183 0.07033075 -0.03252351 -0.0022118853
0.06528479 -0.39962634 0.29832375 0.028031303 0.11124041 0.021619005 0.011129833 -0.07526579
-0.06663034 0.04768049 0.010389209 -0.10975334 0.12931415 -0.09564294 0.10809405 -0.61405486
-0.08323433 0.42563093 0.025532719 0.030425334 0.0013036841 0.022714922 -0.013206824 -0.18139276
-0.28015327 0.14209795 -0.1063941 -0.08987508 -0.15859228 -0.26512796 -0.14343438 0.047244005
-0.24391443 0.79480624 0.09081196 0.60764974 -0.13418218 -0.11521774 -0.40950403 0.022918284

model.4.bias f4 [3]
00000000: 273e 883d b06d 76bd e009 743d
0.066524796 -0.0601632 0.05957973
