HW3/pushing_residual_dynamics_model.pt (torch, 46871 bytes, 6 tensors)

model.0.weight f4 [100, 6]
000000 a3 97 87 be 9f b3 a9 be eb b8 fd 3d ee 5d 6b bd
       -0.26482877 -0.33144853 0.12388786 -0.057462625
000010 6f 20 1a be 98 b8 51 be 22 a6 35 3e ef 81 5d be
       -0.15051435 -0.20480573 0.17739156 -0.21631597
000020 ee 83 53 be 04 c9 88 3e 27 d0 4a be 6c f0 dc be
       -0.20655796 0.26715863 -0.19805966 -0.43152177
000030 77 5b 6d be 33 61 2e be 35 e4 42 3e 87 d3 7e bd
       -0.23179422 -0.17029266 0.19032367 -0.062213447
000040 1d 49 78 bd 78 2e a1 be b7 2e b6 3e b3 70 2a 3e
       -0.0606166 -0.31480765 0.35582516 0.16644554
000050 3c ad d1 bd 5c 97 86 be 47 fd 4e 3e a3 14 75 be
       -0.1023812 -0.26287353 0.20213805 -0.23933654
000060 e3 52 62 be 61 88 cc 3e 67 54 7a bd bd eb cc be
       -0.22101931 0.399478 -0.06111565 -0.40023604
000070 45 1f 94 bd 45 e8 c7 3e 32 78 53 3e 43 ab 89 be
       -0.07232527 0.39044395 0.2065132 -0.26888475
000080 64 88 a2 3e 71 c7 c8 3e 41 85 1f 3c 6a 50 59 3e
       0.31744683 0.39214662 0.00973636 0.21222082
000090 3a 37 43 be dd 01 8c be 8f f0 41 be 3c 82 ac 3d
       -0.19064036 -0.27345172 -0.18939422 0.08423278
0000a0 8e 58 cc bc 52 21 c1 3e 84 82 d3 be ca d9 97 be
       -0.02494457 0.37720734 -0.41310513 -0.29658347
0000b0 ca 26 c2 3d 9d 73 84 bd ab 47 47 be 34 98 b3 3e
       0.09480055 -0.06467364 -0.19460933 0.3507706
0000c0 00 aa a5 be 75 31 7e 3d 00 d3 ae 3e 3f 82 c6 be
       -0.32356262 0.062058885 0.34145355 -0.38771245
0000d0 e0 86 ca be 88 17 10 be 06 e3 3b be 47 f0 5a be
       -0.39556026 -0.14071476 -0.18348321 -0.21380721
0000e0 a6 2e 99 be e5 71 80 bd 17 ba 8b be 9b e0 1d be
       -0.29918402 -0.06271724 -0.27290413 -0.15417711
0000f0 5c b2 b6 bd 99 60 d6 3d e3 f6 27 bf 5f a4 60 3d
       -0.08920738 0.10467643 -0.65611094 0.054844256
000100 08 cf 8a bd b8 f7 c4 3d 4c f2 9b 3d 56 19 05 be
       -0.06777769 0.09617561 0.07614574 -0.12997946
000110 93 cf 15 be 62 6c a2 3e b9 d6 aa bd 7b 6f ae be
       -0.14629965 0.31723315 -0.08341736 -0.34069428
000120 8c 61 95 be 2d a6 6a be 29 f6 41 be 6c 6b 2c 3d
       -0.29175985 -0.22914954 -0.18941559 0.042094633
000130 4a 8e d4 be 87 8e 17 be a6 c9 36 3e 46 bf 5b 3e
       -0.41514808 -0.14800464 0.1785036 0.21459684
000140 f1 aa 2c bd 61 b0 8a 3e 6c 40 34 be 5a d2 84 bd
       -0.04215521 0.2708769 -0.176027 -0.06485434
000150 67 3b cf 3e e7 54 1d be 76 1a 14 3d 69 d5 18 3e
       0.40475008 -0.15364419 0.036158048 0.1492516
000160 81 98 0b 3e 7a 8e b5 be 6e f7 08 3d 27 0c 9e 3e
       0.13632394 -0.35460263 0.033439092 0.30868647
000170 f2 9a cd 3d 43 82 f4 3d 75 09 c9 be 86 57 0f be
       0.10039319 0.11938908 -0.39265028 -0.13998231
000180 11 cf ae be c8 cf f6 3e 07 7b 15 3e cd 1f 00 3e
       -0.34142354 0.482054 0.14597712 0.12512131
000190 cc c4 bd be 73 86 b3 bd 64 c7 81 3d ff e5 47 be
       -0.37064207 -0.087658785 0.06336859 -0.1952133
0001a0 6a bd da 3d a1 6f 57 3e 90 04 82 be 14 9b 4f 3e
       0.10680659 0.21038677 -0.25394106 0.20274001
0001b0 33 07 b4 3d 1a 79 f3 3d 8b 39 90 be 49 c3 6f be
       0.08790436 0.11888333 -0.28168902 -0.23414339
0001c0 fc 7b 8c 3e 86 01 57 3e 0f 67 d5 bd 42 08 26 be
       0.27438343 0.20996675 -0.104200475 -0.16214088
0001d0 0c 50 7c 3d e0 43 0c 3e 96 7b 92 3e cb ff aa 3e
       0.061599776 0.13697767 0.28609914 0.3339828
0001e0 79 10 e3 bb fb dc be 3e d2 d1 a8 3e 33 fa 92 be
       -0.006929454 0.3727797 0.3297258 -0.28706512
0001f0 db 88 a2 3d d9 fe 3e bd 86 4c 1c 3e 70 96 27 3d
       0.07936259 -0.04662976 0.15263566 0.040914953
000200 dc b3 88 be 1c 04 2e be a5 a4 07 bd 8e 88 ae bd
       -0.26699722 -0.16993755 -0.033116 -0.085221395
000210 87 f9 91 3e cb 0a ae 3e 33 f5 df be 02 a7 38 3e
       0.28510687 0.3399261 -0.4374176 0.18032458
000220 c5 58 ad be 47 fd b9 bd f0 17 34 3e 99 f9 8f 3e
       -0.33856788 -0.09081512 0.17587256 0.28120115
000230 60 7c ad 3e b4 d0 70 3e a8 d2 ab 3e 8f ae 2a 3e
       0.33883953 0.23517114 0.33559155 0.16668151
000240 5b 89 a0 be 58 44 24 3e 3f 81 2a 3e 83 5c 18 be
       -0.31354794 0.16041696 0.16650866 -0.1487904
000250 8b 3f 0d 3d cd 36 2f bf b1 88 b0 bd be 80 09 3e
       0.034484427 -0.68442994 -0.08619822 0.13428017
000260 e0 c5 aa be 3e 10 74 3e 2a 71 bd 3d 98 e7 98 3e
       -0.33354092 0.23834321 0.092501 0.29864192
000270 12 e7 0c 3e 99 56 05 3e 09 fc ab 3e 63 0d a3 3e
       0.13760021 0.13021316 0.33590725 0.3184615
000280 8e 23 1e be 49 9f 96 3e 2d 4b 6d be a7 95 89 bc
       -0.1544325 0.294184 -0.23173209 -0.016794993
000290 1b 72 9a bd 09 e6 9d be a2 7b a2 bd aa fc 2f 3e
       -0.07541295 -0.30839565 -0.07933737 0.17186227
0002a0 ad a6 88 be a3 1a 8f 3e e4 79 ea 3e 25 72 6c be
       -0.26689664 0.2795001 0.4579612 -0.23090418
0002b0 71 74 0d be 82 ac 30 be 89 45 80 3c e4 1c 8d be
       -0.1381395 -0.17253307 0.015658157 -0.27561104
0002c0 ab 49 76 3e 8a bc 6d be 5a 74 ce be ed a4 38 3e
       0.2405154 -0.23216453 -0.40323144 0.18031664
0002d0 07 93 95 3e d4 89 0e 3e 2a c2 c9 3e ea af a1 3e
       0.29213735 0.13919765 0.39405948 0.31579524
0002e0 85 aa 72 3e f5 c7 e1 3d 56 11 aa 3d 27 d6 fd bc
       0.2369786 0.11024467 0.08304088 -0.030985905
0002f0 32 fd d7 3b 85 17 b4 3d eb 19 a2 be 15 d6 c1 be
       0.0065914625 0.087935485 -0.316604 -0.37858644
000300 d5 07 06 3e de a0 ac 3e 9b cc b4 3e d5 0c f1 3d
       0.13088925 0.33716482 0.35312352 0.11770026
000310 98 7c 16 be 54 31 11 be 09 6c ba be 0d 8a 46 3e
       -0.14695966 -0.14178973 -0.3641055 0.193886
000320 3f 9a af 3e 8c f4 9d 3e 5f ae e4 bd 56 56 b7 3e
       0.34297368 0.30850637 -0.11166071 0.35808057
000330 bb f6 4a 3e d9 ae 7e 3e d9 08 ad 3e 4b 33 b7 be
       0.19820683 0.24871387 0.33795813 -0.3578132
000340 27 98 2e 3e 7c a3 dd 3d 88 4e 1d 3d b9 c8 86 3d
       0.17050229 0.10822198 0.03840497 0.065812536
000350 1e d7 90 bd ec 5c ba 3e e3 24 fe bc e5 bd b6 3e
       -0.0707228 0.3639902 -0.031023448 0.35691753
000360 1e de 04 be f0 fa 15 3e 2c ff bd bc 87 25 22 be
       -0.12975356 0.14646506 -0.023192964 -0.15834628
000370 a8 9b 88 be 15 a2 b1 3e 08 d3 b9 3d 3a a1 8e 3c
       -0.26681256 0.3469397 0.09073454 0.017410863
000380 c6 10 22 3d d3 c1 92 3e 67 40 b2 3e cf 55 58 be
       0.039566778 0.286635 0.3481476 -0.21126483
000390 70 66 77 3e 48 a0 96 3d ef d0 2c 3e 3e f1 f7 3d
       0.2416017 0.0735479 0.16876577 0.1210656
0003a0 7c 74 a6 be 4e d4 40 3e ab 76 1b 3e c3 d1 19 3e
       -0.32510746 0.18830988 0.15181987 0.15021424
0003b0 d5 cd 72 be e0 e0 9e 3e 73 f1 85 3e 5c b4 d0 3d
       -0.23711331 0.3103094 0.26160774 0.10190651
0003c0 d3 3c 74 be 3f 67 c4 3d fd e8 d3 3e 87 66 82 be
       -0.23851328 0.09590005 0.41388693 -0.25468847
0003d0 aa 3f 2c be 2e 78 4b be 18 a4 70 be 63 6b 8d 3e
       -0.16821161 -0.19870064 -0.23500097 0.27620992
0003e0 2c 48 b7 3e d8 9c b5 be 1f ab d2 be 1f 45 a4 3e
       0.3579725 -0.35471225 -0.4114618 0.32083985
0003f0 77 35 11 bb 9a 94 ef be 27 dd bf be aa 2a cf 3e
       -0.0022157112 -0.46793061 -0.37473413 0.40462238

model.0.bias f4 [100]
000000 8d b1 ca be e7 e8 0a be 24 53 31 3e 5d f5 64 bd
       -0.39588585 -0.13565408 0.17316872 -0.05589806
000010 b4 85 2d be 86 2c bc be 72 fb 7d bd bd 11 40 bd
       -0.16945535 -0.3675272 -0.062007375 -0.046891917
000020 df 89 0c 3e 22 06 88 3d 50 58 13 3e dd 69 b7 be
       0.13724469 0.06641795 0.14389157 -0.35822955
000030 53 ca cc 3e 98 13 d5 3e c4 60 4f 3e fe a2 ac 3d
       0.3999811 0.4161651 0.20251757 0.08429526
000040 b5 81 d3 bd f5 5c 34 3e e7 2b 6c be 86 33 dd be
       -0.10327474 0.17613585 -0.23063622 -0.43203372
000050 6b 57 d8 3d a4 eb c4 be a6 49 73 38 3f 01 44 be
       0.10563549 -0.3846103 5.8004305e-05 -0.191411
000060 73 74 9c 3c f8 97 87 3e fa f4 c6 bd 4b 85 85 3e
       0.019098496 0.2648313 -0.09714694 0.26078257
000070 a9 68 ad be 54 bb 20 3d 54 97 c8 3e 01 74 10 3e
       -0.33868912 0.03924115 0.39177954 0.14106752
000080 0c 82 77 3e 83 d6 2d 3e f2 ce 82 be e8 2c c7 3e
       0.24170703 0.16976361 -0.25548512 0.38901448
000090 81 9a e2 be 01 fa d0 3e ac d3 8d be 6e ef 0b 3e
       -0.44258502 0.40815738 -0.27700555 0.13665554
0000a0 44 25 05 3e 84 0a ac 3e 40 14 06 3e 3d f8 3d 3e
       0.13002497 0.33601773 0.13093662 0.18551727
0000b0 48 60 b7 be 4f bf a5 3e 5a 07 3b 3d c1 15 76 3d
       -0.35815644 0.3237252 0.045661308 0.06007934
0000c0 38 86 bf 3d 58 0c 8d be 52 68 0f be cd 0d b4 be
       0.09351772 -0.2754848 -0.14004639 -0.3516678
0000d0 ee b6 94 bd 43 27 9d be 3c c3 40 be 98 ba d4 bd
       -0.072614536 -0.30694017 -0.18824476 -0.103871524
0000e0 cb f2 99 be 13 77 5a be 70 33 81 3d 00 8e dd bd
       -0.3006805 -0.21334486 0.06308639 -0.108181
0000f0 87 2c c4 be 44 e0 c1 3e 6f 74 51 3e cc d0 40 be
       -0.38315222 0.37866414 0.20454572 -0.1882965
000100 7d cc 87 3e cd 50 61 be a1 49 88 bd 78 26 59 3c
       0.265232 -0.2200348 -0.066546686 0.013253801
000110 0f 4b a4 3e 59 08 da bd 85 bd 5c bd 22 5c 84 be
       0.32088515 -0.106461234 -0.053891677 -0.25851542
000120 1c 7a bf 3e 1a a0 6d bd ef 24 ef be f2 58 64 be
       0.3739785 -0.058014013 -0.46707866 -0.22299555
000130 eb ac d1 be 4d 9e ab be 56 14 bb 3e 55 ff 89 be
       -0.40952238 -0.3351921 0.36538953 -0.26952615
000140 b1 9f 9e 3e 2b cf 1e 3e d9 d4 0e 3e 84 ea a5 3c
       0.3098121 0.15508716 0.13948382 0.020253427
000150 08 42 c8 be 1c 5a 89 3e 41 c7 03 be 5f d0 22 3e
       -0.39112878 0.2682656 -0.12868978 0.158998
000160 27 96 de bd cc f1 b7 3e 2b 56 b9 be aa 7c 8a be
       -0.10868483 0.35926664 -0.36198553 -0.27048236
000170 c8 07 4d be 0c f0 41 3e bb 9c 81 bc a5 80 7d be
       -0.200225 0.18939227 -0.015821805 -0.24756105
000180 41 1e 0d be a8 91 4d be 1a 20 60 be 9f dc 31 3c
       -0.13781072 -0.20075095 -0.21887246 0.010855823

model.2.weight f4 [100, 100]
000000 80 ac 7c 3d 41 1a c3 3d 5e 28 02 3d c4 28 c4 bd
       0.061687946 0.09526492 0.03177678 -0.09578088
000010 b9 eb a1 bc 70 97 04 3d 69 ec 18 3e 76 60 3e 3d
       -0.019765722 0.032370985 0.14933933 0.04647871
000020 8c 65 b2 3d b5 00 e3 bc ab 06 1b bd c0 9f 38 bc
       0.08710775 -0.027710298 -0.037848156 -0.011268556
000030 6b 4d b5 3d 10 c4 95 3d 74 ec ba 3c 39 99 d4 ba
       0.08852657 0.073127866 0.022817828 -0.001621998
000040 ed 8d 2a 3d 30 a6 c2 bc e3 aa d3 bd 96 6b 64 3d
       0.041639257 -0.023760885 -0.103353284 0.055766664
000050 91 3c 8e bd e4 1f a7 bd 7c 5a 6f bd 17 cd ae 3d
       -0.06945146 -0.081603795 -0.058435902 0.085352115
000060 48 d9 26 be 91 bf dc bd 03 94 11 3d 18 1d 1d 3d
       -0.16293824 -0.10778726 0.035541546 0.038357824
000070 72 86 0a bc f1 21 bc bb 29 1f 9d bd 23 8c 88 bd
       -0.008454906 -0.005741351 -0.07671959 -0.06667354
000080 2d 96 ac 3d a6 fd 5e 3d 95 f0 9a 3d 34 8d d3 bc
       0.08427081 0.054441117 0.07565419 -0.025824167
000090 24 1b 78 3c eb c1 ac bd 96 a0 bd 3d 99 39 c5 3c
       0.01514319 -0.084354244 0.09259145 0.024075316
0000a0 35 52 ea bc 4f e8 93 3d 1d 22 e4 3c 81 82 a8 bd
       -0.028603652 0.07222044 0.027848298 -0.08228017
0000b0 69 04 68 bd 7b 1e 5c 3d 8f a0 02 3d 03 30 49 bd
       -0.05664483 0.053740006 0.0318914 -0.049118053
0000c0 8b 46 af bd 2c 8f 59 3b c7 7f ad 3d f5 dd 9b bd
       -0.08558377 0.003319691 0.08471637 -0.07610694
0000d0 9e 5c 77 3d ec 7d 55 bd 59 01 d3 3d 2d 48 8e bc
       0.06039106 -0.05212204 0.103029914 -0.0173684
0000e0 7e df 91 3d 6f e7 d3 3d 64 3c 6d bd a4 28 a9 3d
       0.07122706 0.10346877 -0.05791892 0.08259705
0000f0 9d 24 98 3d 29 61 13 be ed 09 de bb 14 9d cc 3d
       0.074288584 -0.14392532 -0.0067760856 0.09990898
000100 ea e7 a1 bd 38 8b bd bc 46 ac 32 bc 8d 21 d5 3c
       -0.07905562 -0.023137674 -0.010905331 0.026016975
000110 d4 4d bf bd 41 eb a7 3c a0 27 69 3b 05 4d cc 3d
       -0.093410164 0.02049792 0.0035576597 0.09975628
000120 bb cc 17 bd 31 21 7c 3b ad 43 ce 3d 16 a7 dc 3d
       -0.03706048 0.0038471932 0.10071502 0.107740566
000130 84 ce 77 be 7f e1 a4 3d 54 81 c7 3c be 98 61 bd
       -0.24199873 0.080508225 0.02435366 -0.055077307
000140 dd 73 ea 3c 21 eb 9e 3d 83 c5 8d bc 87 90 48 bd
       0.028619701 0.07759691 -0.017306095 -0.048965957
000150 3d 7a 82 3d ed 56 11 bd b7 b4 14 be 02 cb 9e bc
       0.06370971 -0.03548329 -0.14522062 -0.019383911
000160 a7 c1 7d 3d b9 57 5a 3d d1 8d 77 bd 85 22 5c 3d
       0.06195226 0.053306315 -0.06043798 0.053743858
000170 ac 29 ac 3d 10 d4 7f 3d 58 4c 0b bd 1e 45 ca bc
       0.08406386 0.062458098 -0.034008354 -0.02469116
000180 fc 4c bc bc 2a 5e 64 bd 18 1e eb bc fd 47 ca bd
       -0.022985928 -0.055753864 -0.028700873 -0.09877012
000190 27 06 58 3c 09 f8 2a 3e a0 1a f4 3d 1c c8 dd bd
       0.013185061 0.1669618 0.11919141 -0.108291835
0001a0 49 68 e3 3c af 37 65 bd 12 bb 1f bb dc 3b a0 3c
       0.027759688 -0.055961307 -0.0024372977 0.019559793
0001b0 19 d2 b9 3b 00 f8 88 bc df e3 e1 bc f7 32 84 3d
       0.0056707975 -0.016719818 -0.027574478 0.06455033
0001c0 e2 b4 8c 3b b1 5b d9 3d 44 4a 8d 3d a0 69 ca 3c
       0.004294024 0.10613192 0.06898931 0.024708569
0001d0 34 71 de 3b fd ed fe bc 5a 24 ce 3c 31 f7 49 3e
       0.006788397 -0.031119341 0.025163818 0.19723202
0001e0 60 9c 82 3d 27 89 37 bd a4 8a f5 3d ae bb e8 3d
       0.063774824 -0.044808533 0.11989334 0.11363922
0001f0 90 09 08 be 86 f3 87 3d fb 43 35 3d 35 83 36 bd
       -0.13284898 0.06638245 0.044254284 -0.044558723
000200 d9 96 93 3d 67 30 0e be b0 9c 92 bd 05 23 1a 3c
       0.07206506 -0.13885652 -0.07158792 0.009407763
000210 e7 73 c5 3d 88 51 9a bd 93 c6 fe 3c 09 56 99 3d
       0.09641247 -0.07535082 0.031100547 0.07487113
000220 9f cf 6b be 82 46 9f 3d f6 18 cc bd ce fc dc 3d
       -0.2302842 0.0777712 -0.099656984 0.10790406
000230 1d 01 03 3e 02 38 f1 bd 39 16 ed 3d c7 d7 47 bb
       0.12793393 -0.11778261 0.11576504 -0.0030493604
000240 66 f0 20 3d ab da c4 3d 96 6e 1b 3d ae a4 e0 3d
       0.03929176 0.0961202 0.03794726 0.1096891
000250 ef 26 5f bd b6 09 e8 bd 87 42 04 3e 03 1a 3d 3b
       -0.05448049 -0.11329977 0.12916003 0.0028854616
000260 13 e0 99 bd 21 33 84 3d 6f 46 70 bc 01 36 5d 3d
       -0.07513442 0.064550646 -0.01466523 0.05400658
000270 9e 56 d0 bd e1 63 78 3b 55 a4 76 bd 0c 30 ce bd
       -0.10172771 0.003790133 -0.060215313 -0.10067758
000280 f6 1e 84 3d 23 52 0c 3d 90 ad 4d 39 27 5e 8b bd
       0.06451218 0.03425802 0.0001961498 -0.068050675
000290 4e 0d 17 3d 90 6e ac bd 62 54 80 bc c7 c9 83 3c
       0.036877923 -0.084195256 -0.015665237 0.016087426
0002a0 93 ce af 3c 1e cf f0 bd 97 60 8e 39 47 c5 71 bd
       0.021460807 -0.117582545 0.00027156316 -0.05902603
0002b0 af 2b 9e 3c ab 8c 10 3e 99 a1 36 3e 82 27 94 bd
       0.01930794 0.1411616 0.17835082 -0.07234098
0002c0 40 53 74 bd 4b de d9 3d 10 ac 3e 3d b5 bd 41 bc
       -0.059649706 0.10638102 0.04655081 -0.011825015
0002d0 17 9d b2 3d a2 78 27 bc 6b 02 9c bd 2b 5c b0 bd
       0.08721369 -0.010221632 -0.07617649 -0.0861133
0002e0 1a e6 0f 3c 4a a5 c4 3d f6 c5 ff 3d 0f 4b 25 bc
       0.008782888 0.09601839 0.1248893 -0.010088696
0002f0 52 6b 93 3d 6f 9f c5 bd 20 ea 84 3d 28 18 f9 bb
       0.07198204 -0.0964955 0.06489968 -0.0076017566
000300 79 0d 03 3e 96 05 ec bc 45 d4 88 bd 7d 53 d0 bd
       0.12798108 -0.028811257 -0.06681112 -0.10172174
000310 56 e6 ab 3c 61 21 9e 3d 66 fb e4 bb 6f 5c 62 bd
       0.020983856 0.0772121 -0.006987977 -0.055263933
000320 0d 0c 7d 3c c0 d4 1a 3c 33 60 10 3d 2a 11 b9 bd
       0.015444768 0.009450138 0.035247993 -0.09036477
000330 8b 81 be 3d d7 61 2c bd e3 d2 52 3d 67 82 d1 ba
       0.09302052 -0.042085495 0.05147065 -0.0015984297
000340 cd f2 3f bb 3d 06 4d 3d f2 e9 8a 3d dd 7b 7a 3d
       -0.0029289008 0.050054777 0.06782903 0.06115328
000350 77 01 14 3d e3 f3 ad bd 07 1c 95 bd 27 05 4d bd
       0.03613421 -0.08493783 -0.072807364 -0.05005374
000360 13 2a 86 bc 8a 60 34 bd 4d 2e d8 bb cf ea aa bd
       -0.016377484 -0.04403738 -0.0065973164 -0.083455674
000370 0d 91 c5 3c f3 59 70 3d 27 c6 f4 bc cd 28 63 3d
       0.024117017 0.058679532 -0.029879643 0.055458833
000380 ed db f7 bc 00 1a 2f 3d 1d fb 48 bd 63 31 37 bd
       -0.030256236 0.042749405 -0.049067605 -0.044724833
000390 83 2e 28 3d aa d7 25 3d 40 8f c2 3c ad a5 99 3c
       0.041059982 0.040488876 0.023749948 0.018755758
0003a0 c3 b1 80 bd b3 70 e3 bc 40 9d 43 bc 9a 8a 0b 3d
       -0.06283905 -0.0277637 -0.011939347 0.034067728
0003b0 1d 28 7d bd 4d 81 b2 3b 2f de a7 bd 15 9c b0 3d
       -0.061805833 0.0054475428 -0.08196675 0.0862352
0003c0 da 04 8e bd 10 f0 15 bd 53 10 88 3d 0a 6d 66 3d
       -0.06934519 -0.036605895 0.066437386 0.05625633
0003d0 1a 24 ac 3d eb c5 8c bd a7 10 1a 3c 3a d9 98 3c
       0.08405323 -0.06873687 0.009403384 0.01865827
0003e0 73 46 de bc 35 b0 87 3d a0 55 26 bd 87 0f ba bd
       -0.027133202 0.06625406 -0.040609002 -0.09084993
0003f0 da 4b ee 3c aa 11 ac bd 1a 6b c5 bb b3 e2 3b bc
       0.029088903 -0.08401807 -0.0060247304 -0.0114676235

model.2.bias f4 [100]
000000 b7 c7 93 bd c8 c8 8f bd 5f df a7 bd 20 f1 83 3d
       -0.07215827 -0.07020718 -0.081969015 0.06442475
000010 6e f1 d3 bc b6 96 db 3c fc 8c ca 3a c5 a9 b2 bd
       -0.025871959 0.026805263 0.0015453394 -0.08723787
000020 33 d8 82 bb 64 4d 19 bd cd 23 96 bd d3 35 7a bc
       -0.003993058 -0.03742732 -0.07331047 -0.015271622
000030 64 14 5f bd 3c 8a b8 bc cf d1 07 bd 12 be c0 bd
       -0.054462805 -0.022526853 -0.033159073 -0.09411253
000040 bb fe 0b bd 25 8e c2 bd 08 70 a6 3d 7f 1d 26 3d
       -0.034178477 -0.09499768 0.08126837 0.040555473
000050 2d 0d d8 bc 4a 74 c9 3d a8 87 50 bd 9b 55 e2 bc
       -0.02637347 0.098366335 -0.050910622 -0.02762871
000060 7e 7e 5c 3d fa 0d 7d bd 6e 0f 87 bc 5a 28 2a 3c
       0.05383157 -0.061780907 -0.01648685 0.010385597
000070 51 2c 7a 3c 1f 2b b8 bd 89 49 01 bd 3c 4e 19 3d
       0.015269355 -0.089926 -0.03156427 0.037428126
000080 35 df a1 3b a8 13 77 3d d0 4e 30 3c ac 25 a7 bd
       0.0049399384 0.06032148 0.010760978 -0.08161482
000090 bd 57 bf bc 3d 77 5a 3d 01 d2 97 3d 55 a2 59 3d
       -0.023357267 0.05333637 0.07413102 0.053133328
0000a0 c8 eb b2 3d aa 72 dc bb cc 7e 70 bc 3d 5e a5 bd
       0.08736378 -0.006727536 -0.014678668 -0.08074615
0000b0 1d 90 84 3c 85 ae eb bc f3 13 19 3c 02 b6 38 3d
       0.016182 -0.02876974 0.009343135 0.04509545
0000c0 0d 24 9e 3d 67 71 6f bc ae 0c a0 3d b6 f7 34 3c
       0.0772172 -0.01461444 0.078149185 0.011045387
0000d0 22 c4 c7 bd 51 b0 1a bc b9 dd 9a 3d e6 1a 4c bc
       -0.09754206 -0.009441451 0.075618215 -0.012457585
0000e0 32 1c 2a 3c 53 bc 82 3d c8 12 94 bd b5 0b 32 bd
       0.010382699 0.06383576 -0.07230145 -0.043468196
0000f0 97 60 bb 3d e0 40 89 3d 0a 7c 86 3d c7 c6 a4 3a
       0.091492824 0.06701827 0.06566627 0.0012571447
000100 1b d3 83 3d 45 36 06 bd b1 a3 22 bc 96 3c 0e bd
       0.064367495 -0.0327666 -0.009926722 -0.034725748
000110 dd f4 e5 bc f3 63 3b bd da e7 68 bd 5b 43 96 bc
       -0.028070861 -0.045749616 -0.056861736 -0.018342664
000120 83 ac b7 bb cc 7f 44 bd 99 14 4f 3d 3e 81 c7 3d
       -0.005605282 -0.04797344 0.050556753 0.09741448
000130 22 5f bd 3d 3b 29 ab bc 73 17 82 bd 60 a0 8d bd
       0.09246661 -0.020893684 -0.06352129 -0.06915355
000140 2e 60 a9 bc 78 be a9 bd cb 3c 28 bd 16 ac bf 3c
       -0.020675745 -0.08288282 -0.0410736 0.023397487
000150 65 48 3b bd 6b ab 6f 3d 75 22 5d bd ba d6 1b 3d
       -0.045723338 0.058513086 -0.05398794 0.038046576
000160 4f fb be bd 8c d5 f2 bc 82 a3 bd 3d 2d 31 43 3d
       -0.09325277 -0.029642843 0.09259702 0.04765432
000170 00 d3 d4 bd 1c 7f 6d 3d 20 24 c0 bd be df a5 3d
       -0.103918076 0.05798255 -0.0938189 0.08099316
000180 83 2a 94 bc f6 a2 c5 3d 2d c7 3e 3d 32 d9 8f bd
       -0.018086677 0.09650223 0.046576668 -0.070238486

model.4.weight f4 [3, 100]
000000 db 8d 97 bd ee 17 ad bc 0d cf 30 bc a7 5a d8 3c
       -0.07400104 -0.021129575 -0.010791552 0.026410414
000010 08 eb 2d 3d 73 02 9c 3c 1e b9 8d 3c 26 83 99 bd
       0.04246047 0.019044137 0.017300185 -0.07495718
000020 30 d5 73 bd 86 b1 b5 bd 1e e2 b1 3d 70 95 b4 3d
       -0.059529483 -0.088717505 0.086857066 0.088175654
000030 ee f8 af bd 3c 14 03 bd d5 8f ef bc fe 31 b8 bc
       -0.085924014 -0.03200172 -0.02924339 -0.022484776
000040 06 ae 8d bd bb 54 35 3d 58 0a 75 3c c1 59 e6 3c
       -0.06917958 0.04427026 0.014956079 0.02811897
000050 30 4d 30 3d cc 42 1b 3d 2c 2f 5c 3d 1f b4 92 bd
       0.04304236 0.0379055 0.053755924 -0.071632616
000060 09 2a 85 bd d5 4a 8b bc a7 b0 d3 bd f9 8f 45 3d
       -0.06502158 -0.017003456 -0.10336428 0.048233006
000070 f5 ac 20 3d b8 ff 8e bd 3e 71 79 3c 56 a4 17 bc
       0.039227445 -0.06982368 0.015224753 -0.009255489
000080 ea 75 fc bc b0 f0 33 3d 01 0f 7a 3d 87 82 1f bd
       -0.030817945 0.04393071 0.061049465 -0.03894284
000090 6a a4 8c 3d e9 1c 3a 3c 8b 49 8c 3d 87 03 f2 3c
       0.06867297 0.011359432 0.06849965 0.029542698
0000a0 82 f8 63 bc 7a bd a5 bd f1 38 83 bd d8 de 9b 3d
       -0.013914229 -0.080927804 -0.06407345 0.076108634
0000b0 4a 28 fb bc db c8 09 3c a0 d7 e3 bc 6d 34 18 bd
       -0.03065886 0.008409704 -0.027812779 -0.037159372
0000c0 fe e0 ff 3c 84 5a a3 bd 88 34 b1 3c 47 6b 86 bd
       0.031235214 -0.07976249 0.021631494 -0.0656343
0000d0 e0 61 91 bc c0 c3 78 3b ed 0d 42 bd a0 26 ae 3d
       -0.017746866 0.0037958473 -0.047376562 0.08503461
0000e0 cf af 57 bc 08 39 8d bd fa 9b 7b 3d 12 00 a9 3d
       -0.013164475 -0.068956435 0.061428048 0.082519665
0000f0 90 66 fa 3c 43 d0 f3 ba 9c f5 3b bc 61 e3 70 3d
       0.030566484 -0.0018601496 -0.011472132 0.058810595
000100 be a8 4a bc 1b 70 b5 ba a1 e3 9a bd 1f 86 86 bc
       -0.012369333 -0.0013842614 -0.07562948 -0.016421376
000110 3b 40 b0 3d d3 02 a2 3c 6d 5a 1b 3d b9 02 ab 3d
       0.08606001 0.019776737 0.037928034 0.08350129
000120 02 93 73 bd 39 e0 81 3d 8c 2d 37 3b 59 2c 8c bb
       -0.05946637 0.06341595 0.0027950732 -0.0042777476
000130 a2 c3 d7 bb b3 4e 32 bc a9 e6 13 bd aa 03 84 bd
       -0.0065846005 -0.010883021 -0.036108647 -0.06446011
000140 8c eb 33 bd fb 6b 6c 3d ea 96 7c bd 9c 36 9f bd
       -0.043925807 0.057720166 -0.06166736 -0.07774088
000150 dd 9c ba 3d 62 d3 c5 bd 6f de a2 bc 39 98 c3 3c
       0.091119505 -0.09659459 -0.019881455 0.023876296
000160 09 ff 96 3c 2a df df 3c 48 a5 42 3a 72 f5 0f bd
       0.018432157 0.027328093 0.00074251415 -0.035146184
000170 2c 2d 31 3d 2b af 8d bd 77 91 0f bc dc f9 a2 3d
       0.04325597 -0.06918176 -0.008762709 0.07957813
000180 0d 98 32 3d 2a 5e fc 3c 47 0a 38 3d 6d 72 2d bd
       0.04360204 0.03080662 0.044931676 -0.042345453
000190 d0 49 44 3d c1 0b 72 bd 88 ef a7 bd 24 4c 34 3b
       0.047921956 -0.05909324 -0.08199984 0.0027511204
0001a0 60 a2 a6 3d df ee 7d bd 39 8f d9 3c 78 60 d2 bd
       0.08136439 -0.061995383 0.026557552 -0.10272306
0001b0 00 69 5b 3c 6b c4 8c bd ad f7 19 3d 2f 94 10 3d
       0.013391733 -0.06873401 0.037589718 0.03529757
0001c0 ba 95 30 bd bf e5 0a 3d ed c7 27 3a 1a 7a 3c bd
       -0.04311154 0.03391051 0.00064003357 -0.046014883
0001d0 3f db a2 bd 70 cf 66 bd a8 6d 99 3a 1b 2d b3 bc
       -0.07951974 -0.05635017 0.0011705654 -0.021872094
0001e0 93 d1 b2 3c 77 05 68 3d 9b 2b 88 3d 3f 40 47 bd
       0.021828448 0.056645837 0.06648942 -0.048645254
0001f0 dc 38 7c 3d d4 ed 9d bc 70 67 80 3d a5 a3 76 bc
       0.061577663 -0.019278444 0.06269729 -0.015053664
000200 cb 7e 0a 3d b8 79 41 3c 77 3a 86 3d cd 81 81 3d
       0.033812325 0.011808805 0.0655412 0.06323586
000210 93 23 30 3c 52 dd 36 bd fb 95 70 3d 74 3d b6 3d
       0.010750669 -0.04464466 0.058736783 0.0889844
000220 ef ca 14 bd 4a 2c 7c bc 4c 5e 8a 3d 5b dc 46 bd
       -0.036326345 -0.015391419 0.06756267 -0.04854999
000230 d6 88 52 bd 9e 93 c2 bd 0a ff 39 bc 21 af a0 bd
       -0.05140003 -0.09500812 -0.01135231 -0.07845903
000240 1b 69 94 bd a9 38 81 3c 10 dc 71 3d 09 ce 32 3d
       -0.0724661 0.015774088 0.05904776 0.04365352
000250 ac 09 b4 bd bb 94 6a 3d ed a3 35 3d 5b 22 9d bd
       -0.08790907 0.057270747 0.044345785 -0.076725684
000260 a8 ad f8 bc a9 bb 63 3d 1a 6c 0e 3d 2c 97 5e bc
       -0.030356243 0.05559889 0.034771062 -0.013585847
000270 55 35 9d 3c 47 9b 62 bd d5 7a 91 3d d0 3e 78 3d
       0.01919047 -0.055323865 0.071035065 0.060606778
000280 d9 d8 89 bc fc 4d fa ba 77 a4 c3 3d 29 23 95 bd
       -0.016827034 -0.0019096727 0.095528536 -0.07282097
000290 76 27 66 bd 71 19 4a 3c d9 dc 96 bd d2 e2 89 3d
       -0.056189977 0.012335167 -0.07366342 0.06732716
0002a0 02 7f 75 bc 80 08 47 3d 9a c3 d2 3c 83 10 aa bc
       -0.014983894 0.04859209 0.025728036 -0.020759827
0002b0 e7 19 44 bc 11 1a 0e 3d e4 41 43 bd 74 bb 31 3d
       -0.011969066 0.034692828 -0.04767026 0.04339166
0002c0 7a 19 b8 bc 3a 6e 87 3d 68 15 a3 3d c1 99 db bc
       -0.022473086 0.06612821 0.07963067 -0.026806714
0002d0 98 ca 91 bd 10 2d 8f bd 01 26 a9 3d 5a bf 23 bd
       -0.0711872 -0.06991017 0.08259202 -0.03997741
0002e0 9b 9a 9f 3d 9f be 20 3d 68 26 90 bc ce 45 95 3c
       0.077931605 0.03924429 -0.017596439 0.018221762
0002f0 d5 53 84 3d bb 13 95 bd a2 02 94 3d e9 ac 60 3d
       0.06461302 -0.07279154 0.07227065 0.0548524
000300 c6 41 56 3d 06 99 54 bd a4 24 6d bc 4b 91 92 3d
       0.05230882 -0.051903747 -0.014474068 0.07156619
000310 f9 4a 9d 3b 0d de 9e 3d a2 37 07 3d c7 46 16 bd
       0.004800197 0.077571966 0.03301204 -0.036688592
000320 e6 bf aa 3d 01 ec 5c 3e d5 12 98 3d 3c 83 9f bd
       0.08337383 0.21574403 0.07425467 -0.07788703
000330 3a ee f2 bc e6 e6 16 be c5 ec 61 be 62 b6 57 bd
       -0.02965461 -0.14736518 -0.22062977 -0.05266417
000340 87 08 e7 3c f9 cc 2a be 74 1d 5c bc 8f 01 a9 bd
       0.028202308 -0.16679753 -0.013434757 -0.082522504
000350 b4 7b 3a bd dd 54 a1 bd da 56 cc 3d 0c 7a 58 3d
       -0.04552813 -0.078775145 0.09977503 0.052850768
000360 e3 fb 4b 3d 52 c8 21 3e 0b c8 db 3e c8 8b 95 3e
       0.049800765 0.15799072 0.42926058 0.29208207
000370 7d fa 60 3d ed 11 0b 3e 29 40 a6 3d b6 bd aa 3d
       0.054926384 0.13581057 0.08117706 0.08336966
000380 29 84 e7 bb 5a a3 d1 be 62 c6 20 bc 78 af 81 be
       -0.0070653153 -0.4094494 -0.009812923 -0.25329185
000390 ef af 50 3d 37 33 d5 3c 74 b9 2e bd 50 2d 26 be
       0.050949033 0.026025398 -0.04265733 -0.16228223
0003a0 23 c9 d0 bd 3f e6 ba bd c3 e9 e4 3e d7 b6 2a bd
       -0.10194614 -0.09125947 0.44709596 -0.041678276
0003b0 64 02 95 be ce 76 c5 3e ab 74 9c bd 83 55 b0 bd
       -0.29103386 0.38567203 -0.0763944 -0.0861006
0003c0 89 ed 58 bd fd 44 87 bb 25 62 85 3e 24 c3 88 3d
       -0.052960906 -0.004128097 0.2605144 0.06677845
0003d0 a5 0e 83 3d 63 f3 06 3d 27 35 60 bd 5b b1 18 3e
       0.063992776 0.032946955 -0.05473819 0.14911406
0003e0 18 aa 3a bd 10 21 4f bc a8 38 19 3e 7e c3 8f 3d
       -0.04557237 -0.01264216 0.14963019 0.07019709
0003f0 bb a6 8a be a1 5c 68 bd 94 bb 67 be ea 53 b5 3d
       -0.2708033 -0.056728963 -0.22630149 0.08853896

model.4.bias f4 [3]
000000 bd 62 89 3c eb 42 10 bd 5c 3b a3 bd
       0.016770715 -0.035220068 -0.07970306
