HW3/pushing_absolute_dynamics_model.pt (torch, 46871 bytes, 6 tensors)

model.0.weight f4 [100, 6]
0	0xbe663e58	-0.2248472
1	0xbe7a58c0	-0.24447918
2	0xbca5bf86	-0.020232927
3	0x3ed41907	0.41425344
4	0x3e64dc6a	0.22349706
5	0x3edeceb3	0.43517074
6	0xbe09bb75	-0.13450415
7	0xbecb14b7	-0.39664242
8	0x3e420940	0.18948841
9	0xbd820588	-0.06348711
10	0x3de759c8	0.11296421
11	0x3dc078d5	0.09398047
12	0xbe2460af	-0.16052507
13	0x3e971d22	0.29514414
14	0x3da2b9e6	0.079456136
15	0xbd97031e	-0.073736414
16	0x3ebc1419	0.36734083
17	0x3ca72efb	0.020408144
18	0x3e7a7910	0.24460244
19	0xba8f9aff	-0.0010956227
20	0x3eae7aae	0.34077972
21	0xbe9ff3ab	-0.3124059
22	0x3e0e7c1e	0.13914534
23	0x3ecbe2a2	0.39821345
24	0xbe7f0344	-0.2490359
25	0xbd9f1e91	-0.07769502
26	0x3dc15d3e	0.09441613
27	0xbe9bc074	-0.30420268
28	0xbec7e59c	-0.39042366
29	0x3e5348e2	0.20633271
30	0x3ed075de	0.40714926
31	0xbe8d754a	-0.27628547
32	0x3cddc383	0.027070766
33	0xbe6ed73c	-0.23324293
34	0xbec38637	-0.38188335
35	0xbe3d489b	-0.18484728
36	0xbe23dc7f	-0.16002081
37	0x3e7122d8	0.23548448
38	0x3cb94d30	0.022619814
39	0x3ecf7e0e	0.4052586
40	0x3ece0519	0.40238264
41	0xbec6f5fd	-0.3885955
42	0xbe2edda8	-0.17076743
43	0xbe8b549f	-0.27212998
44	0x3d19ae8a	0.03751997
45	0x3e8fab7e	0.28060526
46	0xbe3e9dc5	-0.18614872
47	0x3e50e07b	0.20398133
48	0x3d73c375	0.059512574
49	0xbe7a793a	-0.24460307
50	0x3ea1d420	0.3160715
51	0x3dcc9771	0.09989823
52	0x3dadd1e1	0.08487297
53	0x3d5aecc8	0.05344847
54	0x3d5b2375	0.05350061
55	0xbc1f99a7	-0.009741223
56	0xbcf38350	-0.0297257
57	0x3df05e22	0.117367044
58	0xbe8b014b	-0.27149424
59	0x3e99204c	0.29907453
60	0x3e980789	0.2969325
61	0xbe90924c	-0.28236616
62	0xbe684a39	-0.22684564
63	0xbe7d4cf7	-0.24736391
64	0x3e567a25	0.20945032
65	0xbeb45395	-0.35220018
66	0xbec4a746	-0.3840887
67	0xbecf219b	-0.40455326
68	0xbe326725	-0.17422159
69	0x3e3d5072	0.18487719
70	0x3d1b594e	0.037926964
71	0xbe9eb69d	-0.30998698
72	0x3eba79de	0.36421102
73	0x3e1e2c7b	0.15446655
74	0x3e265a4b	0.16245382
75	0xbe927747	-0.28606626
76	0x3e014dd0	0.1262734
77	0xbde0a9fd	-0.10969923
78	0x3e8b6b69	0.27230385
79	0xbe09a8e0	-0.13443327
80	0xbea5eba7	-0.3240635
81	0x3e9f9d4b	0.31174693
82	0xbe948dcd	-0.29014435
83	0x3e8e12fa	0.27748853
84	0xbeaacec4	-0.33360875
85	0xbe8a4422	-0.27005106
86	0xbe7e2916	-0.2482036
87	0x3da6f5dc	0.08152363
88	0x3b8f3a01	0.0043709283
89	0x3d2236a2	0.039602883
90	0xbe631444	-0.221757
91	0x3e8b62e2	0.2722388
92	0xbe3e47c7	-0.18582068
93	0xbe194c0d	-0.14970417
94	0x3ecbc3f9	0.39797953
95	0x3ea97565	0.33097377
96	0xbea87912	-0.3290487
97	0xbee0a68a	-0.4387706
98	0x3dc0c17a	0.09411903
99	0x3e7499f4	0.23886853
100	0x3d43b6a9	0.04778162
101	0x3e17f86e	0.14840862
102	0xbeb1c33f	-0.34719273
103	0x3e149719	0.14510764
104	0xbea434c8	-0.3207152
105	0xbbb9d9aa	-0.0056716995
106	0x3e05625c	0.13025802
107	0xbe91b43d	-0.28457823
108	0xbd3d3d25	-0.04620089
109	0x3d29a053	0.041412663
110	0x3e3e3109	0.18573393
111	0x3e71c783	0.23611264
112	0xbe5c724d	-0.21527977
113	0xbeb37a3d	-0.35054198
114	0xbe8eb041	-0.27868846
115	0xbf04c5a2	-0.51864064
116	0xbbd783eb	-0.006577005
117	0x3ec53246	0.38514918
118	0xbe4b8e1d	-0.1987843
119	0xbea275df	-0.31730554
120	0xbe7e399b	-0.24826662
121	0x3e60e1a6	0.21961078
122	0x3ea75aec	0.32686555
123	0xbea40e62	-0.32042223
124	0x3d87c2dc	0.06628963
125	0x3e8fb920	0.28070927
126	0x3d40f891	0.04711205
127	0x3de47e05	0.11156849
128	0xbe7b57ac	-0.24545163
129	0x3c578fe6	0.013156867
130	0x3c589efb	0.013221498
131	0x3d4b49a8	0.04963079
132	0xbca1ae99	-0.019736575
133	0xbe3e7244	-0.18598276
134	0xbec6d437	-0.38833782
135	0x3e1a64ca	0.1507751
136	0xbeb321b0	-0.3498664
137	0x3e64bfb0	0.22338748
138	0xbeb3fcca	-0.351538
139	0x3eba9f81	0.36449817
140	0x3d876064	0.06610182
141	0xbe2f3cdf	-0.17113064
142	0x3e895653	0.26823673
143	0x3db2c8d6	0.08729713
144	0x3ed81671	0.4220462
145	0x3edbd6eb	0.42937407
146	0x3db2e18f	0.08734428
147	0xbc1adb6c	-0.009451728
148	0xbe8b8148	-0.2724707
149	0x3ec194fd	0.37808982
150	0xbe92f495	-0.28702226
151	0x3eee0926	0.46491355
152	0xbe5f70e1	-0.21820404
153	0x3c3f4310	0.011673704
154	0x3e435c58	0.19078195
155	0x3d3a5195	0.04548796
156	0x3db7b473	0.08969965
157	0x3edc3218	0.43006968
158	0x3e19809a	0.14990464
159	0x3e44bcb0	0.19212604
160	0x3dca5488	0.09879404
161	0xbe42cc32	-0.19023207
162	0xbd12a245	-0.035799284
163	0xbe3a43fb	-0.18189995
164	0x3e707c52	0.23484924
165	0x3e96e9bb	0.29475197
166	0xbdbde5ee	-0.09272371
167	0x3d9562c5	0.072942294
168	0x3e979e7a	0.29613096
169	0xbe2b7d36	-0.16746983
170	0x3e87bf49	0.26513126
171	0xbdb976c9	-0.090558596
172	0x3e7dfb96	0.24803004
173	0x3e8c69a2	0.2742434
174	0x3db59f94	0.08868328
175	0xbe504f1a	-0.20342675
176	0xbdaf8676	-0.08570568
177	0x3d5fe559	0.054662082
178	0xbd5abf79	-0.05340526
179	0x3c29380b	0.010328303
180	0x3eb28196	0.3486449
181	0xbf08417e	-0.53224933
182	0xbca029d0	-0.019551188
183	0x3ea4ab40	0.32161903
184	0x3e5a086c	0.21292275
185	0xbe0e35c0	-0.13887691
186	0x3ee5e86a	0.4490388
187	0x3ec25c35	0.37960973
188	0x3e8f5d5f	0.28000924
189	0xbd32531b	-0.043536287
190	0xbe2723a8	-0.16322196
191	0xbe44092d	-0.19144125
192	0xbe2e4bdf	-0.1702113
193	0xbe720b08	-0.2363702
194	0xbee2e988	-0.44318795
195	0xbe0e9b39	-0.139264
196	0x3e9d4db0	0.30723333
197	0xbd9b6ad9	-0.07588739
198	0xbbb1701e	-0.0054149767
199	0x3dc0aa3c	0.0940747
200	0xbe04b620	-0.129601
201	0xbcff60ce	-0.03117409
202	0xbecce24e	-0.40016407
203	0x3cb268a5	0.021778414
204	0xbe13a937	-0.14420019
205	0x3ed6cb46	0.4195196
206	0x3ecde9c0	0.402174
207	0xbb80e9d6	-0.0039341254
208	0xbe6ab888	-0.22921956
209	0x3e513b1f	0.20432709
210	0xbdb64419	-0.08899707
211	0xbe29e479	-0.16591062
212	0xbe4b6c59	-0.1986555
213	0x3ea100f2	0.31446034
214	0x3e9ffba3	0.3124667
215	0x3ebf63c6	0.3738081
216	0xbe9b293e	-0.30304903
217	0x3dd25ecd	0.10271988
218	0x3df9beed	0.12194619
219	0x3e29adcb	0.16570203
220	0xbe64b13e	-0.22333238
221	0x3dec749d	0.1154568
222	0xbe1da6bf	-0.1539564
223	0x3f1acd48	0.60469484
224	0xbe818c2d	-0.25302258
225	0x3e6ff91e	0.23434874
226	0x3e2690c7	0.16266166
227	0x3dc237b8	0.09483284
228	0x3e2656f9	0.16244115
229	0x3eca2e83	0.3948861
230	0xbec7add8	-0.3899982
231	0xbe8fb5bf	-0.2806835
232	0x3cab74ad	0.020929659
233	0x3d6118dd	0.054955352
234	0x3e60c922	0.21951726
235	0xbec7b60f	-0.39006087
236	0xbec740e7	-0.38916704
237	0x3ec80b8a	0.39071304
238	0xbea7a952	-0.3274637
239	0xbe056fe3	-0.13030963
240	0x3dee7926	0.11644201
241	0xbe95dd82	-0.2927056
242	0xbe6fa0bc	-0.23401159
243	0xbe806e0c	-0.2508396
244	0xbee1f87f	-0.441349
245	0xbc1fd05a	-0.009754265
246	0xbe6ae086	-0.22937211
247	0xbe66aef9	-0.22527684
248	0xbeacfb06	-0.33785266
249	0x3ec235f2	0.37931782
250	0xbec57bac	-0.38570917
251	0xbe8e20ae	-0.27759308
252	0x3e8bb7d2	0.2728868
253	0x3dc6e2dd	0.097112395
254	0xbec4a41f	-0.38406464
255	0x3ebc1617	0.36735603

model.0.bias f4 [100]
0	0xbe533eea	-0.20629469
1	0xbded6a9b	-0.11592599
2	0xbe92acaa	-0.28647357
3	0x3ea29da9	0.3176091
4	0xbeda167d	-0.42595282
5	0xbea48e46	-0.32139796
6	0x3df98ff0	0.12185657
7	0xbc674d6b	-0.014117579
8	0x3dae38af	0.08506905
9	0x3e57a7c2	0.21060088
10	0xbe6400ca	-0.22265926
11	0xbe253887	-0.16134845
12	0xbd69a74c	-0.057044312
13	0x3e73169c	0.23739094
14	0x3ec66d0e	0.38755077
15	0xbeb691e6	-0.35658187
16	0x3dff17bf	0.12455701
17	0xbea257a2	-0.31707484
18	0xbe1f4ea9	-0.1555735
19	0x3e772875	0.24136527
20	0x3ec0d6ce	0.37663883
21	0x3e33047f	0.17482184
22	0xbd3cd2e5	-0.046099562
23	0xbdfb16af	-0.12260186
24	0x3eb68ba8	0.35653424
25	0x3eb27f79	0.3486288
26	0x3e7a3da0	0.2443757
27	0x3e1553ae	0.14582703
28	0x3ba5a97c	0.0050556045
29	0xbe8d5126	-0.27600974
30	0xbe7a14df	-0.24422024
31	0x3e9139bf	0.2836437
32	0x3e886c29	0.2664502
33	0xbd6c7afe	-0.057734482
34	0xbe8a28e8	-0.26984334
35	0xbeaa9faa	-0.3332494
36	0x3e1bbf33	0.15209655
37	0x3eba5c5b	0.36398587
38	0x3eaa8593	0.33305034
39	0x3b48d0da	0.0030642063
40	0xbe64fc37	-0.22361837
41	0x3daa2f5d	0.08309815
42	0x3ec584cc	0.38577878
43	0xbdfc6602	-0.12324144
44	0xbe030d3d	-0.12798019
45	0xbd9984fa	-0.074960664
46	0x3e817b5c	0.25289428
47	0x3eca1bcb	0.3947433
48	0xbe81df63	-0.25365743
49	0x3e9f6037	0.31128094
50	0xbdef527e	-0.11685656
51	0xbebb36a3	-0.36565122
52	0xbe2dc0fb	-0.16968147
53	0x3e84f419	0.25967482
54	0xbe88f4db	-0.2674931
55	0x3ea84a98	0.3286941
56	0xbd605827	-0.05477157
57	0xbd48092f	-0.048836883
58	0x3dd49a12	0.10380949
59	0x3e6da709	0.2320825
60	0x3e8a5a3b	0.27021965
61	0xbe84e04a	-0.2595237
62	0x3dd3a59f	0.10334324
63	0xbe0b0be4	-0.13578755
64	0xbece2f3a	-0.40270406
65	0x3e0dd362	0.13850167
66	0xbe7b5ea4	-0.24547821
67	0xbe0a6922	-0.13516667
68	0xbc65bc9a	-0.014022017
69	0x3ec73656	0.38908643
70	0xbe273da1	-0.16332103
71	0xbca95151	-0.020668657
72	0x3e612784	0.2198773
73	0xbd80a9a8	-0.06282359
74	0xbe178b32	-0.14799193
75	0x3e18b36c	0.14912194
76	0x3e918ee4	0.2842933
77	0x3e8cb32b	0.27480444
78	0xbd0f927c	-0.035051808
79	0xbce945d7	-0.028475685
80	0xbe8844b9	-0.2661493
81	0x3e3bad82	0.18327907
82	0xbe753823	-0.23947196
83	0x3e1f07a9	0.15530266
84	0xbe9476c5	-0.28996864
85	0x3ec82695	0.39091936
86	0xbc823bfe	-0.015897747
87	0xbdf2fe15	-0.118648686
88	0x3eb0b27f	0.34511182
89	0x3ea9d6d1	0.33171704
90	0xbeaedbf0	-0.34152174
91	0x3e2de58e	0.169821
92	0xbe88dd56	-0.26731366
93	0xbe790809	-0.24319471
94	0xbeb79223	-0.3585368
95	0xbe814599	-0.2524841
96	0xbcd43c1e	-0.025907572
97	0x3eae5cae	0.34055084
98	0xbde2cc52	-0.11074127
99	0xbe9012cd	-0.28139344

model.2.weight f4 [100, 100]
0	0xbe10831d	-0.14112516
1	0xbc81231e	-0.015763815
2	0xbdad89f6	-0.084735796
3	0x3d7959a8	0.06087652
4	0xbc877ef0	-0.01654002
5	0xbe339631	-0.17537762
6	0x3e0d0286	0.13770494
7	0x3d7539ef	0.059869703
8	0x3d3b2b59	0.045695636
9	0x3d6033a4	0.05473675
10	0xbe1bffd8	-0.15234315
11	0x3d18b85d	0.037285198
12	0xbd04b182	-0.032395847
13	0xbdc69e19	-0.096981235
14	0xbc9a3795	-0.018825332
15	0x3c7e71da	0.015530074
16	0xbdeb9f00	-0.11504936
17	0xbd0e579a	-0.034751512
18	0xbc11528d	-0.008869779
19	0x3cf9dffd	0.030502314
20	0x3e000bd2	0.12504509
21	0xbdcf926d	-0.101353504
22	0x3c32f62c	0.01092295
23	0x3d1c07f3	0.03809352
24	0xbd4a0adf	-0.049326774
25	0xbde891da	-0.11355944
26	0x3dbb36ba	0.09141298
27	0x3d95c10a	0.0731221
28	0x3c69c017	0.014266989
29	0xbd0acbcd	-0.033885766
30	0xbbd64ece	-0.006540156
31	0x3d85b8fe	0.06529425
32	0xbd830818	-0.06398028
33	0xbdb02f0a	-0.08602722
34	0xbd052c91	-0.032513205
35	0x3d924156	0.07141368
36	0x3c662ba2	0.014048489
37	0xbd20651a	-0.039158918
38	0x3ded2681	0.1157961
39	0xbdb83d67	-0.089960866
40	0xbe1bd612	-0.1521838
41	0x3c9613d5	0.018320004
42	0xbdb84b81	-0.08998776
43	0xbd4fb147	-0.050706174
44	0xbdbefc9e	-0.09325527
45	0xbd663e7c	-0.056211933
46	0x38df76df	0.0001065561
47	0x3d3666a6	0.044531487
48	0xbd193d77	-0.037412133
49	0x3d2dd934	0.04244347
50	0xbc52003d	-0.01281744
51	0x3daf3d9a	0.085566714
52	0xbcc66a21	-0.024220528
53	0x3d40176b	0.046897333
54	0x3e0a3e22	0.13500264
55	0x3cef3555	0.029200235
56	0x3db2cd94	0.08730617
57	0x3dd4c525	0.10389165
58	0xbdc559db	-0.09636279
59	0x3dc9c0ca	0.09851225
60	0xbcd287c9	-0.025699513
61	0x3e1ba57e	0.15199849
62	0x3c95f703	0.01830626
63	0xbd088c05	-0.033336658
64	0xbc9b7992	-0.018978868
65	0xba6f7985	-0.0009135234
66	0x3d8fcfda	0.070220664
67	0x3d6623fd	0.056186665
68	0x3da604c5	0.081063785
69	0xbdbbef9e	-0.09176563
70	0x3e4b9b22	0.19883397
71	0xbdb97757	-0.090559654
72	0x3dc284d9	0.09497995
73	0x3b373403	0.0027954585
74	0x3daa49cc	0.08314857
75	0xbd111ac5	-0.03542592
76	0x3d28703e	0.041122667
77	0x3d597f21	0.053099755
78	0x3da0bc28	0.07848388
79	0xbc57d86a	-0.013174156
80	0x3c827c73	0.015928483
81	0x3cd238f6	0.025661927
82	0xbbc71f02	-0.0060766945
83	0x3d70a0d5	0.05874713
84	0x3cd4ba1a	0.025967646
85	0xbd5ba04c	-0.053619668
86	0x3d8db7d5	0.06919829
87	0x3d35aa52	0.044351883
88	0x3c14c3ad	0.009079856
89	0x3d8e0910	0.06935322
90	0x3de5e9fd	0.1122627
91	0x3db3100f	0.08743297
92	0x3daf14da	0.08548899
93	0x3d61635e	0.055026405
94	0x3d8e388b	0.069443785
95	0x3d243068	0.040085226
96	0xbd596dc6	-0.053083204
97	0xbd588a12	-0.05286605
98	0xbd03e131	-0.03219718
99	0x3c55f3bd	0.0130586
100	0x3d2e5705	0.042563457
101	0xbe02c6e8	-0.12771189
102	0x3d3c2dcf	0.045942124
103	0x3dcaf475	0.09909908
104	0xbdebb795	-0.11509625
105	0xbd4440dc	-0.047913417
106	0xbc86ca8b	-0.016454002
107	0xbd5d950d	-0.054097224
108	0x3d461f44	0.04836966
109	0x3dcc5100	0.09976387
110	0x3cb1e2ac	0.02171453
111	0x3dc24397	0.09485548
112	0xbd50dc89	-0.05099157
113	0x3d7ac33b	0.061221343
114	0xbd0dd1c0	-0.03462386
115	0xbbce4266	-0.0062945364
116	0x3d5e4d6a	0.054273047
117	0x3dab1523	0.08353641
118	0xbb7a99bc	-0.0038238605
119	0xbcb7cab9	-0.022435533
120	0xbda33c5d	-0.07970498
121	0x3cc1a890	0.023639947
122	0xbcd97a28	-0.026547506
123	0x3bf50022	0.0074768225
124	0x3bd9f55c	0.0066515636
125	0xb980e396	-0.00024583627
126	0xbd5baacc	-0.05362968
127	0xbd9b4e3d	-0.07583282
128	0xbb41d4df	-0.0029576344
129	0xbda111f3	-0.07864752
130	0x3c2f8b8b	0.010714422
131	0xbd8a1210	-0.067417264
132	0xbdbdd30e	-0.09268771
133	0x3c36d3a5	0.011158858
134	0xbdd3767a	-0.10325332
135	0xbde20677	-0.11036389
136	0x3dbe164d	0.09281597
137	0xbd4588cb	-0.04822616
138	0x3c76e68e	0.015069617
139	0xbd7b0614	-0.061285093
140	0xbdf4d812	-0.11955275
141	0x3d14b785	0.03630783
142	0x3c68c61f	0.014207392
143	0xbd50263f	-0.050817724
144	0x3ce879c6	0.028378379
145	0xbd333627	-0.043752816
146	0x3d870e8c	0.065945715
147	0x3da55a53	0.080738686
148	0xbd3208dd	-0.043465484
149	0x3d2f03a7	0.042728093
150	0x3d746a75	0.059671838
151	0x3c9c72ad	0.01909765
152	0x3db5a0f0	0.08868587
153	0x3d0dda8a	0.034632243
154	0xbdbf08fb	-0.09327885
155	0xbd025b0e	-0.031825118
156	0x3da193a8	0.07889491
157	0x3acabd2c	0.0015467755
158	0xbd9a09f1	-0.075214274
159	0xbdc1d911	-0.0946523
160	0x3da72e55	0.08163134
161	0x3b108987	0.002205463
162	0x3dcce717	0.100050144
163	0xbd2fe840	-0.0429461
164	0x3d57053d	0.05249523
165	0x3dc1eeb2	0.09469356
166	0x3d9b49a6	0.07582407
167	0xbc5ca9fc	-0.013468262
168	0xbdc1a5a5	-0.09455422
169	0x3d5ef139	0.054429267
170	0xbdaf5b81	-0.08562375
171	0xbc864898	-0.016392037
172	0xbd51aa6e	-0.051187925
173	0xbdc4166f	-0.09574591
174	0x3e4da690	0.2008307
175	0x3c341ac9	0.010992714
176	0xbda7acaf	-0.08187234
177	0xbdbe9099	-0.093049236
178	0x3d3e3d3e	0.046445124
179	0x3e407ecf	0.18798374
180	0x3db29b82	0.08721067
181	0xbd5fc692	-0.05463273
182	0xbd7eef81	-0.062240127
183	0xbda4b6fc	-0.08042714
184	0xbd6376d1	-0.055533234
185	0xbd7f876f	-0.06238502
186	0x3da1338f	0.07871162
187	0x3d926358	0.071478546
188	0xbd0f0a63	-0.034922015
189	0x3daf7c6c	0.085686535
190	0x3ca73fd2	0.020416174
191	0x3dcbefd4	0.09957853
192	0x3d777781	0.060416702
193	0xbd129395	-0.035785276
194	0x3d7f9c8c	0.062405154
195	0x3d4c71c4	0.049913183
196	0xbd281589	-0.041036163
197	0x3d8f1b78	0.06987661
198	0x3d4854f7	0.048909154
199	0x3d6842f9	0.056704495
200	0xbd5f2d50	-0.054486573
201	0x3da35e80	0.07977009
202	0xbccc22a0	-0.024918854
203	0xbd502373	-0.050815057
204	0x3d2f51d3	0.042802643
205	0x3c57a69a	0.0131622795
206	0x3d1c03f7	0.03808972
207	0xbd1f2a8d	-0.03885894
208	0xbd8875a8	-0.06663066
209	0x3c798d5a	0.015231455
210	0xbd8e4418	-0.069465816
211	0x3cbf858d	0.023379112
212	0x3ce0fb5a	0.027463604
213	0xbd919175	-0.07107822
214	0xbc2bd567	-0.010487891
215	0x3dc225a7	0.09479838
216	0xbcdcfc3a	-0.02697574
217	0xbc8074cd	-0.015680695
218	0x3d689e3d	0.056791533
219	0x3d4f2620	0.05057347
220	0x3d852ab5	0.06502286
221	0xbd3757ca	-0.044761457
222	0xbb4c0633	-0.0031131625
223	0x3d4ecdad	0.050489116
224	0xbd5719c3	-0.052514803
225	0xbda5d082	-0.0809641
226	0x3b97cb9a	0.0046324255
227	0xbd24b4a7	-0.040211346
228	0x3cb9458d	0.022616172
229	0x3d24f883	0.04027606
230	0x3cc396f3	0.02387569
231	0xbd237ac0	-0.039911985
232	0xbd886998	-0.066607654
233	0xbdae696d	-0.08516202
234	0x3c0071a7	0.007839597
235	0xb9983ccd	-0.00029037
236	0xbd2de790	-0.042457163
237	0x3d7ce8c7	0.06174543
238	0xbd0d4d93	-0.03449781
239	0x3d4db7cd	0.050224114
240	0xbcd6c5f3	-0.026217436
241	0xbd0143da	-0.03155885
242	0xbd9418c3	-0.072312854
243	0xbdb9f402	-0.09079744
244	0x3cb5045a	0.022096802
245	0xbcbaa1ed	-0.02278229
246	0x3c963553	0.018335974
247	0x3d63a4f0	0.05557722
248	0x3db4cef0	0.08828533
249	0xbc9e4d8d	-0.019324088
250	0xbdc517d5	-0.09623686
251	0x3d4d6d0d	0.050152827
252	0xbda94532	-0.08265151
253	0xbd10bfda	-0.035339214
254	0xbdc27c2f	-0.094963424
255	0x3d35885d	0.0443195

model.2.bias f4 [100]
0	0x3cbff4b8	0.02343212
1	0x3d55638e	0.052096896
2	0xbc9465a7	-0.018114878
3	0xbd6102a8	-0.054934174
4	0x3dca8006	0.098877
5	0xbcb17060	-0.02166003
6	0x3cbeae25	0.023276398
7	0xbdc8def5	-0.09808151
8	0x3a213f60	0.0006151106
9	0xbdc754cf	-0.09732973
10	0xbd886b48	-0.06661087
11	0xbdbd23a5	-0.09235314
12	0x3d200856	0.03907045
13	0xbb320180	-0.0027161539
14	0xbd4b9eef	-0.049712118
15	0xbb9dedb6	-0.004819597
16	0x3d22e033	0.039764594
17	0xbdc0babd	-0.094106175
18	0x3db78a28	0.08961898
19	0x3dd5d995	0.10441891
20	0xbd93ac8c	-0.07210645
21	0x3da53bdb	0.08068057
22	0xbd7222cb	-0.059115212
23	0x3d1c524b	0.03816442
24	0x3d5c51c7	0.053788926
25	0xbdb7077d	-0.08936975
26	0x3d0e047b	0.03467224
27	0x3d59417a	0.05304096
28	0xbdb9e7ef	-0.09077441
29	0xbd8a16f8	-0.06742662
30	0xbd86e67e	-0.06586932
31	0x3d9d3531	0.07676161
32	0x3d81679b	0.06318589
33	0x3d6006f4	0.05469413
34	0xbdaf78a7	-0.085679345
35	0x3dba99cd	0.091113664
36	0x3d8b6d4a	0.068079546
37	0x3d3b9462	0.045795806
38	0x3d611575	0.054952104
39	0xbdc1dd72	-0.094660655
40	0xbce70e55	-0.028205076
41	0x3dc8cd6f	0.09804808
42	0x3d7ec7a7	0.062202122
43	0xbd57a070	-0.05264324
44	0xbd9e6b65	-0.07735328
45	0x3d9f3588	0.07773882
46	0xbd9fe112	-0.07806601
47	0xbdbb2440	-0.091377735
48	0x3d6b5c66	0.057461165
49	0xbd56216f	-0.05227798
50	0xbd7a1ca3	-0.061062466
51	0xbc1c08c2	-0.009523572
52	0x3da459e3	0.08024957
53	0x3b0bab43	0.0021311797
54	0x3d33bbc5	0.043880243
55	0x3ccf5ba8	0.02531226
56	0x3d379b24	0.044825688
57	0x3d84961f	0.06473946
58	0xbd5d2e67	-0.05399933
59	0xbd5ec901	-0.05439091
60	0xbdd05e37	-0.1017422
61	0x3bddf589	0.006773655
62	0x3d2b899d	0.041879285
63	0x3dac9a3d	0.08427856
64	0x3dce605f	0.10076975
65	0xbde05c6b	-0.10955127
66	0xbca4178d	-0.020030761
67	0xbd8e212d	-0.069399215
68	0x3da560cb	0.080751024
69	0xbc9b4c14	-0.018957175
70	0x3cc14e7c	0.023596995
71	0x3b9d6600	0.004803419
72	0x3d55cca1	0.052197102
73	0x3d1e5a0d	0.038660098
74	0xbd911db5	-0.07085744
75	0x3d248405	0.040164966
76	0xbd6e6734	-0.05820389
77	0xbd608a28	-0.054819256
78	0x3d23051e	0.039799802
79	0xbd33967b	-0.04384468
80	0x3cbbd3cb	0.02292814
81	0x3c4152ab	0.011799495
82	0xbc3a3338	-0.011364751
83	0x3da46724	0.08027485
84	0xbd87a8c2	-0.06623985
85	0x3d50c384	0.05096771
86	0x3d1ecf44	0.038771883
87	0x3dd44a6c	0.10365757
88	0xbd7606d7	-0.060065117
89	0x3ca4b2a3	0.020104712
90	0xbd9a67b2	-0.075393096
91	0xbdb07104	-0.08615306
92	0xbd46e341	-0.04855657
93	0xbc8e67cd	-0.01738348
94	0x3d008d5b	0.031384807
95	0x3db58356	0.08862941
96	0xbd1cbffd	-0.03826903
97	0xbd215d5e	-0.039395683
98	0x3c62bea9	0.013839402
99	0xbdafd4d6	-0.08585517

model.4.weight f4 [3, 100]
0	0x3c22f131	0.0099452
1	0x3d3b525a	0.045732833
2	0xbdaad497	-0.083413295
3	0x3ca94b75	0.020665864
4	0x3cd4e89d	0.025989825
5	0xbd022a00	-0.031778336
6	0xbdbb4186	-0.09143357
7	0xbdb60352	-0.08887352
8	0x3d391ea9	0.045195255
9	0xbda9066a	-0.082531765
10	0x3da76a36	0.08174555
11	0x3d5f7bfa	0.054561593
12	0xbd981bc7	-0.07427173
13	0xbd4bc3b1	-0.049747173
14	0x3e039731	0.12850644
15	0x3d4f6022	0.05062879
16	0x3ca41bc8	0.020032778
17	0xbd31864a	-0.04334096
18	0xbc5d4b81	-0.013506771
19	0x3ce499f2	0.027905438
20	0xbd27f7ec	-0.04100792
21	0xbade0bfe	-0.001694083
22	0x3d98b7ef	0.074569575
23	0xbd9b29b8	-0.075763166
24	0x3cb1dbd3	0.021711266
25	0xbbb0ca6f	-0.0053952257
26	0xbc093655	-0.00837477
27	0xbd31df61	-0.04342592
28	0xbda93500	-0.08262062
29	0x3b1ad3e4	0.0023624832
30	0xbd584884	-0.05280353
31	0xbba91a33	-0.005160594
32	0x3daa533d	0.08316658
33	0xbd7ce608	-0.061742812
34	0x3a1235e9	0.0005577491
35	0xbbfeb0b1	-0.007772528
36	0xbcd48a1f	-0.025944768
37	0xbb9f4937	-0.004861023
38	0xbd8ad94b	-0.067797266
39	0xbd0ada0a	-0.033899345
40	0xbd8ee7ec	-0.06977829
41	0x3d6c5ac8	0.057703763
42	0xbd596683	-0.05307628
43	0xbdc4f653	-0.09617295
44	0xbd8004e2	-0.06250931
45	0xbc8e5645	-0.01737512
46	0xbd40b790	-0.04705006
47	0x3d394920	0.045235753
48	0x3dac4d61	0.08413196
49	0xbcfdd04f	-0.030983118
50	0x3da186b9	0.078870244
51	0xbdb071c3	-0.08615448
52	0xbc280775	-0.010255684
53	0xbda9306a	-0.082611874
54	0xbc66be8b	-0.014083515
55	0x3d0447c0	0.03229499
56	0x3d9e22bd	0.077214696
57	0x3d9da801	0.0769806
58	0x3de56514	0.1120092
59	0xb8e4c208	-0.00010908028
60	0xbd96aeff	-0.073575966
61	0xbdb85e82	-0.09002401
62	0x3dbc3ff8	0.091918886
63	0x3d8196c7	0.063275866
64	0x3dde1306	0.10843472
65	0xba1ca9b4	-0.00059762155
66	0xbd8c95a0	-0.06864476
67	0x3c56b5e7	0.013104892
68	0x3da7b9d3	0.0818974
69	0x3bd3d6ba	0.0064648064
70	0xbd1d9074	-0.03846784
71	0xbc893cad	-0.016752565
72	0x3d7f3601	0.06230736
73	0x39e0d6c8	0.00042884634
74	0xbbba6d9a	-0.005689335
75	0x3dbc0544	0.09180692
76	0x3db42228	0.08795577
77	0xbbf5631e	-0.0074886223
78	0x3db42963	0.087969564
79	0x3dba8ae0	0.091085196
80	0xbda1e1a6	-0.07904367
81	0xbd4986a1	-0.049200658
82	0xbd4152a0	-0.047197938
83	0xbd0a19d1	-0.033716027
84	0xbda28436	-0.079353735
85	0xbd2d161f	-0.042257424
86	0xbd20c6b0	-0.039251983
87	0x3dc5be7c	0.09655473
88	0x3d3145ce	0.04327946
89	0x3db36589	0.08759601
90	0x3d23ab4d	0.039958287
91	0xbd987039	-0.0744328
92	0x3bab6175	0.0052301236
93	0x3d64c5ef	0.055852827
94	0x3d626a75	0.055277307
95	0x3dc46a78	0.0959062
96	0x3d268ffa	0.04066465
97	0xbcbecb45	-0.023290286
98	0x3de47843	0.111557506
99	0x3b8f5f26	0.0043753562
100	0x3cc27741	0.023738505
101	0xbd82401c	-0.06359884
102	0x3ccf2547	0.02528633
103	0x3db5beb1	0.08874262
104	0xbdca9d48	-0.0989328
105	0xbc78f0c0	-0.015194118
106	0xbd0ec06a	-0.03485147
107	0xbd3b110a	-0.045670547
108	0x3dbf4c44	0.093407184
109	0x3dc8662d	0.097851135
110	0x3d056877	0.03257033
111	0x3bc23000	0.005926132
112	0x3d87935f	0.06619906
113	0x3d52af96	0.051436983
114	0xbe48024d	-0.19532128
115	0x3a8158df	0.0009868405
116	0x3cd70b8a	0.02625062
117	0x3d5d3e43	0.054014456
118	0xbe0ede24	-0.13951927
119	0xbdae552e	-0.085123405
120	0xbc9e3035	-0.019310096
121	0x3d977eec	0.07397255
122	0x3ddae311	0.10687841
123	0x3d0d0cb9	0.03443596
124	0x3dbfaa8a	0.093586996
125	0xbd9e87ce	-0.077407464
126	0x3ca73430	0.020410627
127	0xbd105e91	-0.035246436
128	0x3d19e703	0.037573826
129	0x3b15a1ef	0.0022832116
130	0xbcc9c972	-0.02463219
131	0x37e237fb	2.6967367e-05
132	0x3daeec4f	0.08541166
133	0x3dd70edc	0.10500881
134	0xbd33b348	-0.043872148
135	0xbe0e5811	-0.13900782
136	0xbdbcc79e	-0.092177615
137	0xbd2275ed	-0.039663244
138	0xbd01bd35	-0.031674583
139	0x3d77fe00	0.060544968
140	0xbdd0e673	-0.10200205
141	0x3c872b41	0.016500117
142	0x3dbf351c	0.09336302
143	0x3d8a3542	0.06748439
144	0xbcf96f73	-0.030448651
145	0x3d4ec306	0.050478958
146	0xbccd6cdd	-0.025076324
147	0xbd717df0	-0.058957994
148	0x3ddea661	0.10871578
149	0x3d9a8b4f	0.07546102
150	0xbd692c7c	-0.05692719
151	0xbd545dc0	-0.05184722
152	0x3dd99d8b	0.10625752
153	0xbd675fa8	-0.05648771
154	0x39e8234d	0.0004427679
155	0xbdf9147d	-0.12162111
156	0xbe33c4ef	-0.17555593
157	0x3cb4ac2e	0.022054758
158	0x3a9611cd	0.0011449397
159	0xba8b60d1	-0.0010633712
160	0xbca32db5	-0.019919256
161	0x3bd7614e	0.006572879
162	0xbd2d0eb9	-0.04225037
163	0xbc952bfd	-0.018209452
164	0x3dd8eed2	0.10592426
165	0x3e105c8f	0.14097808
166	0x3cfca348	0.030839577
167	0x3dae3515	0.08506218
168	0x3c759781	0.014989735
169	0xbd090c5e	-0.03345906
170	0x3dac3060	0.08407664
171	0x3cb7e9da	0.022450376
172	0x3c8b81e4	0.01702971
173	0x3d460f28	0.048354298
174	0xbdafb167	-0.08578759
175	0xbdf4a86d	-0.11946187
176	0x3e016505	0.12636192
177	0xbd89fe0d	-0.067379095
178	0x3d214d3f	0.03938031
179	0x3e2e87a2	0.17043927
180	0xbdda42af	-0.1065725
181	0xbd77ccd7	-0.060498085
182	0x3d5e1cd3	0.054226708
183	0xbd444f06	-0.047926925
184	0x3ca606ac	0.020266853
185	0xbcbd2149	-0.02308716
186	0x3d2b6be3	0.041850936
187	0xbdfe414b	-0.124147974
188	0xbdda88b3	-0.106706046
189	0xbbb7e096	-0.0056114895
190	0x3db355d7	0.08756607
191	0xb9b71d78	-0.00034926436
192	0x3d1e6d00	0.03867817
193	0xbd9c17bd	-0.07621715
194	0x3d10fd57	0.035397854
195	0x3d98082d	0.074234344
196	0x3ddcffda	0.10790987
197	0x3c2e8b67	0.010653353
198	0x3cf5d84f	0.03001037
199	0xbd26813d	-0.040650595
200	0x3ddbebe8	0.10738355
201	0xbd9a28ce	-0.07527314
202	0xbd02c1d3	-0.031923126
203	0xbdf649e9	-0.12025816
204	0xbdd506d5	-0.10401694
205	0xbcded00d	-0.027198816
206	0x3e268dac	0.16264981
207	0xbcef4d40	-0.02921164
208	0x3e12a16e	0.14319393
209	0xbd5d4388	-0.05401948
210	0x3ce4bf49	0.027923243
211	0x39632667	0.00021662713
212	0xbb8d00b1	-0.004303061
213	0x3cfcc8e2	0.030857507
214	0xbe0a7844	-0.1352244
215	0xbdbbb1c1	-0.09164763
216	0x3deecd26	0.11660223
217	0xbc1546cd	-0.0091111185
218	0x3e59cba3	0.21269087
219	0x3d88b5b4	0.06675282
220	0x3d86d50e	0.06583606
221	0x3e482124	0.19543892
222	0x3e26133d	0.16218276
223	0x3ce20477	0.02759002
224	0x3d8d4c0f	0.06899273
225	0xbbf52cd8	-0.0074821524
226	0xbdee338d	-0.11630926
227	0x3dcbf5b0	0.099589705
228	0xbcb2e1fb	-0.021836272
229	0x3d44b6b3	0.048025798
230	0x3d0d4eac	0.034498855
231	0xbcbc1e33	-0.022963619
232	0xbae0885c	-0.0017130482
233	0xbdb2a09a	-0.087220386
234	0x3dde3318	0.10849589
235	0xbe6f0017	-0.23339878
236	0x3e57853c	0.21046919
237	0xbdb67391	-0.08908761
238	0xbd6aeec7	-0.057356622
239	0x3d3a2e80	0.045454502
240	0x3df41228	0.119175255
241	0xbdf2295b	-0.11824294
242	0x3d7de5d2	0.06198675
243	0xbc0650c0	-0.008197963
244	0xbb857267	-0.0040724757
245	0xbd8de282	-0.069279686
246	0x3cb79b60	0.022412956
247	0xbc8ca80d	-0.017169977
248	0x3d836b9e	0.06417011
249	0x3bbb1a5e	0.0057099303
250	0x3ba29d04	0.0049625654
251	0x3ded40ee	0.1158465
252	0xbd09c727	-0.033637192
253	0xbb6606b2	-0.0035099206
254	0x3dc619f7	0.09672921
255	0x3da5efe5	0.08102397

model.4.bias f4 [3]
0	0x3ce95616	0.028483432
1	0x3d057995	0.032586653
2	0x3dd29927	0.10283118
